models/ppo_pricing_agent_v3.pth (torch, 42409 bytes, 11 tensors)

critic.0.weight f4 [64, 5]
00000000: 8084 0abe ec97 61bd d2b3 6a3e 7713 54be
00000010: d87a 103e 281c 70bd 0b01 5b3e 0e2b 183e
00000020: 69fe a7bc 400b 8a3e 5708 6e3c d081 9abc
00000030: 45ca 7bbd 1277 d4bd e944 09bd 3f17 b7be
00000040: 1e63 9a3b b17f a6be 51f9 49be 1a73 07bd
00000050: fe72 bfbc 8392 053d c5d3 9cbd 13ec 95bd
00000060: 2b94 e8bd 71da 363e 81bf 603d 3ec0 4dbc
00000070: 4e2b 5abe e5f6 133d daa1 18be 7579 b8bd
00000080: 9385 06be 704a 863d 4465 25bd d7a0 033e
00000090: f5b5 0cbd da4d c9be 4f95 92be ab23 033e
000000a0: d353 553c b9ce a3be 7783 a93d 461b 203e
000000b0: 4fb1 a23d 574f 083e 62a7 be3d ed59 cb3e
000000c0: 9ae6 383e 644c 303e 61b3 8e3e 16fd 0e3d
000000d0: dc37 5cbe 4f82 98bd 753c be3d a0e4 aa3d
000000e0: ea75 033e 949f 17bd 55a8 2dbd d651 cdbd
000000f0: a1b7 bfbd a815 5cbe 213d 8f3e 0dc1 89be
00000100: 3f27 a73d 3ef6 9b3d f744 513d 8102 a93d
00000110: 60b8 8abd 8165 313e e7ee c33e f9b6 a1bd
00000120: 4563 d73d 30ad 27bd 53bb 3bbe e648 943e
00000130: 4aa8 f8be 05ed b03d b8a6 aabe ef90 31bc
00000140: ed3c 363e 3054 873e 2ab6 003e 4d62 d33d
00000150: 6d8a 0d3e c914 e7bc 65f1 63bd 43f7 bd3d
00000160: a593 c3bb f4bf 0abe 12e3 aebd 23b8 c6bd
00000170: cbde 76bb bb0c a5bd d950 ffbd 5dd8 0e3e
00000180: 5e89 26bd 2fe9 093d 4648 c3bd 59db 9abd
00000190: 6ac7 213e 7624 003e 335f acbb 8349 a9bd
000001a0: c787 92be 2a0b 07be bfab 69be 8a28 393e
000001b0: c7d0 a3be b6fc e43d 7b31 b2bc 6882 c2be
000001c0: 68d6 a0be 8d25 e13c fadf 0f3e ed86 813e
000001d0: 2fb1 4d3d 2d6e 393c d832 8dbc 2673 8bbd
000001e0: 21ee 373e c5a6 173e 20c1 c43d 131f 283d
000001f0: 77e2 dabd 3e0d 653c a759 133d cfac d7bd
00000200: 9141 893d d2d3 743e f148 4dbc 4729 443a
00000210: 4bff 06bc c0e6 db3d d35d 48bd 3d78 67be
00000220: 4b31 3bbd d0b6 4a3e 7578 80be 7357 ff3b
00000230: 90d3 5e3d 56b8 823d 781d e5bd 1093 9cbd
00000240: f150 9f3d e407 e7bd 9600 d03d f152 3b3e
00000250: e5d3 333d 13c2 f63d cbfb efbc 80dc fdbc
00000260: fcf7 10be a0dc 16bb c092 843e 45a3 c2bd
00000270: 5e83 85be 7484 993d a0b1 563e dad4 d03d
00000280: 4147 7f3d b7a1 3e3e 7010 5a3d f58d e3be
00000290: b821 e13d 7707 3bbd 9d5b 803d 4be1 9c3d
000002a0: e733 b5bd 0f5b 323e 5aa6 ba3c e514 e6bd
000002b0: 30e0 19be f57f 6d3e 269b 8d3e 3dd5 bb3d
000002c0: 8e47 aabd 7af8 3abe e5e4 913d df50 67bd
000002d0: a5d5 743e cf83 1e3e 654e 143c c896 04be
000002e0: 82a9 c6bd ac75 fb3c 681f f4bd d2fa e53c
000002f0: 4b6c 1c3e 747d 313e 18e8 c83d 59e3 c33d
00000300: 6eed 49be 4b95 6e3c d339 613d d1d3 933d
00000310: ba3f 0bbd 9a60 643e d77c fbbd c396 8a3e
00000320: 4212 08be db45 053e e112 613e b43a 29be
00000330: e797 d8be 3186 15be e762 9b3c d3ee c5be
00000340: a162 b23d 4e65 90be d98d 103e 2459 a5bd
00000350: 4a1a 2d3d 62bf 363e 404e 9c3d 741d 093f
00000360: 7c90 1cbe 536c be3d 722f adbd 7c4c c3be
00000370: 98e5 813e 275f 763d 61e4 0bbe 19ad 1ebe
00000380: 74db 39bc 0ca4 e1bc e660 2c3e e498 cbbd
00000390: dfa1 4bbe e804 21be 8e2b 293e 4894 86be
000003a0: 093e 9ebd def3 7fbe eb00 b13d adf4 4cbe
000003b0: af1b cebd 4ef8 2f3e 4609 02be ae9d 19be
000003c0: 6747 b2be 8e50 fdbd a9db 37bd 4d3e 3dbe
000003d0: 82aa 15be 020c 78be cc81 8d3e 2252 043d
000003e0: 3332 54bd dc50 c43e d166 343e c2c1 463e
000003f0: f81d f3bc 8ad9 9f3e af35 3bbc 69f6 233e
-0.13527107 -0.055076525 0.22920159 -0.2071055 0.14109361 -0.058620602 0.21387117 0.14860174
-0.020507054 0.26961708 0.014528356 -0.018860728 -0.061472196 -0.10374273 -0.033512983 -0.35759923
0.0047115227 -0.32519296 -0.19724013 -0.033068754 -0.023370262 0.032610428 -0.07657579 -0.07320418
-0.11356386 0.17856766 0.054870132 -0.012558041 -0.21305582 0.03612413 -0.14905491 -0.09007541
-0.13136892 0.065571666 -0.040379778 0.12854324 -0.034353215 -0.3931721 -0.28629538 0.12806575
0.0130204735 -0.31993654 0.08277028 0.15635404 0.07943975 0.13311516 0.093092695 0.39717045
0.18056718 0.1721664 0.2787123 0.03490933 -0.21505684 -0.074467294 0.09288875 0.08344388
0.1283795 -0.03701742 -0.042396862 -0.100253746 -0.09361196 -0.21492636 0.27976325 -0.269051
0.081617825 0.07615326 0.05109116 0.08252431 -0.06773448 0.17323877 0.38268206 -0.078962274
0.10516981 -0.04093665 -0.18333177 0.28961867 -0.48565894 0.08638958 -0.3333032 -0.0108377775
0.17796679 0.26431417 0.1256949 0.10321484 0.13822336 -0.028208153 -0.055650134 0.09275677
-0.0059685283 -0.13549787 -0.08539404 -0.0970309 -0.0037669416 -0.08059069 -0.12466592 0.13949724
-0.040658347 0.033669647 -0.095352694 -0.075613685 0.15798727 0.12513909 -0.005260372 -0.082659744
-0.28619215 -0.13187853 -0.22819422 0.1808187 -0.31995222 0.11181013 -0.02175211 -0.37990117
-0.3141358 0.027483726 0.14050284 0.25298253 0.050217804 0.011317772 -0.017236158 -0.06809072
0.17961933 0.14809711 0.09607148 0.04104526 -0.10687726 0.013980208 0.03597417 -0.105310075
0.06701959 0.23908928 -0.012529598 0.00074829574 -0.0082395775 0.107373714 -0.048917603 -0.22604461
-0.045701306 0.197963 -0.250919 0.007792407 0.05440098 0.063828155 -0.11187261 -0.076452374
0.0777911 -0.11280802 0.10156362 0.18293358 0.04390325 0.120487355 -0.029294869 -0.030988932
-0.14157099 -0.0023019686 0.2589321 -0.095037974 -0.26076788 0.074959666 0.20966196 0.10196848
0.062323812 0.18616377 0.053238332 -0.44444242 0.109927595 -0.045661416 0.06267474 0.07660159
-0.0884779 0.17417549 0.0227844 -0.11234454 -0.15026927 0.23193343 0.2765743 0.09171531
-0.08314429 -0.18258849 0.07123736 -0.05647361 0.23909624 0.15479968 0.009051894 -0.12948143
-0.097003 0.030695759 -0.11920053 0.028073702 0.15275685 0.17333013 0.09809893 0.095648475
-0.19719478 0.014561961 0.054986786 0.07218135 -0.03399632 0.22302476 -0.12279671 0.27068147
-0.13288215 0.13014929 0.21979858 -0.165263 -0.42303392 -0.14601971 0.018968059 -0.3865877
0.08710218 -0.2820229 0.1411661 -0.08073643 0.0422614 0.17846444 0.076321125 0.53560567
-0.15289491 0.09298005 -0.08456315 -0.3814429 0.2537048 0.060149338 -0.13661338 -0.15495719
-0.011343826 -0.027544044 0.16833839 -0.09941271 -0.19885968 -0.15724528 0.16520521 -0.26285005
-0.07726676 -0.24995372 0.08642753 -0.20015211 -0.10063874 0.17184564 -0.1269885 -0.15001556
-0.348201 -0.1236888 -0.04488722 -0.18480797 -0.14615825 -0.2422333 0.2763809 0.03230489
-0.051805686 0.3834294 0.17617346 0.1940985 -0.029677376 0.31220657 -0.011426373 0.16011967

critic.0.bias f4 [64]
00000000: 7534 9d3d 9c15 3ebd fd14 a9bd d731 4bbd
00000010: 07de a2bd 8b7c 93bd 1c40 b33d 4742 313d
00000020: 4382 99bd 2bec 56bd 35cf 8ebd cfe3 793d
00000030: 521c b33d 7f64 93bd f9a8 85bd a6e4 753d
00000040: 2769 483d 110d 8dbd 1720 bf3d 4cdb 8bbd
00000050: 3224 93bd 1b96 7a3d a839 7bbd b0bf 36bd
00000060: 227e 243d 45d7 883d 6f86 94bd 4680 1c3d
00000070: 0637 b63d b648 8bbd 18bb 9e3d 1061 88bd
00000080: 35bc 4dbd 2d0f 74bd 91ca 4ebd b7af 913d
00000090: 5ecf 8fbd 908f 8abd 55e5 893d 3497 83bd
000000a0: 9d82 98bd 5565 62bd 45c6 503d 18a1 083d
000000b0: be7e 82bd 9fda 6ebd c31b 9b3d 7542 703d
000000c0: 2fec 823d f8b6 843d 9325 1c3d 0f15 95bc
000000d0: cae3 423d 93e4 8dbd 014a 7a3d 23f3 6a3d
000000e0: ebef ba3d a0d3 7cbd 71a6 673d ef93 a23d
000000f0: 8751 adbd 919c 853d dd64 853d 56b0 863d
0.07676021 -0.046407327 -0.08255956 -0.049608078 -0.079525046 -0.07201489 0.08752462 0.043276098
-0.074955486 -0.05247132 -0.06973115 0.06100827 0.08745636 -0.071969025 -0.065263696 0.06003251
0.048928406 -0.06887258 0.093322925 -0.06828937 -0.07184638 0.061178308 -0.061334282 -0.0446164
0.040159352 0.066816844 -0.07252204 0.03820827 0.08897214 -0.06800978 0.07750529 -0.06659138
-0.050228316 -0.059584785 -0.05048615 0.07113593 -0.07021974 -0.067656636 0.06733195 -0.06425324
-0.074467875 -0.05527242 0.050970335 0.033356756 -0.063718304 -0.058313962 0.075736545 0.05865713
0.06392705 0.06480211 0.03812177 -0.018198518 0.047580518 -0.06928363 0.061105732 0.05736078
0.09127792 -0.06172526 0.056555215 0.07938372 -0.08462816 0.06524003 0.06513379 0.06576602

critic.2.weight f4 [64, 64]
00000000: 02f4 303e 3f7f 09bd dca2 973d fe80 853e
00000010: 06e2 8b3d 1515 16be a6fd f73c a0c2 0bbe
00000020: a7ef ac3d 188c 563d d83a 053e 8161 d3bd
00000030: 677e 9b3e 4259 1c3d c70a 09bd d0d8 3f3e
00000040: 3ccd 16be 3f4d 8dbc 72c9 193d 8d95 453d
00000050: 1bd0 b33b ae4b be3d 5185 83bd 4b74 c2bd
00000060: 7c84 28be 387c 013d 0e1f 7d3e 3796 a4be
00000070: 347c 24be f404 963d ea24 8dbe 8e20 873d
00000080: 43db 80bd c140 87be 6004 373e a7ae f03a
00000090: 200f 68bd 09e7 f73d 8646 65be 809e c73e
000000a0: 0366 22be f3c2 273e da10 47be 10a5 2b3e
000000b0: 2edc 4e3e 40bc 88bc f8d1 89be a86c d9bd
000000c0: ff59 b7bd ae81 8b3e d09b 8e3e 7761 8dbd
000000d0: 0069 333d e18b a2be 460d ebbe adb8 9ebe
000000e0: e34e c93d 914c 8abd 5759 9e3c 94ea 84bd
000000f0: 70f9 0fbe 1c3b 7fbe 53bb 833e a52f 44be
00000100: d68c f03e e233 243e b63a 07be 60cc fc3b
00000110: 33e9 88be d128 1dbd 47f7 383e 2fe5 04be
00000120: aa19 0b3d c51a a43d 760b 18bd ad54 403d
00000130: 12b3 65bc 89ad 96be 8633 07be a92e 443c
00000140: 4cb9 a93c 5d78 5f3e 3b26 633e 4a9f f3bd
00000150: 7542 37bc 313b 163e ec68 bd3e 4a86 ec3d
00000160: 23f2 123e 6e0a 86be 6bc4 a2bd 01d2 533d
00000170: fb34 c53d 9c13 b9bd 7f23 563e 737a 8c3e
00000180: f033 83be 0129 45be 549b 6abd 242b debc
00000190: 598c 2d3e 4f41 9abe 5c22 983e 0db2 01be
000001a0: ea04 923d cffe 7bbd f434 a93e 3fa4 91be
000001b0: 1e98 793e 6b17 443d 852e e2bc 8c0f 84bd
000001c0: 21e8 353e d835 34bd 220b b53d a7fa 51be
000001d0: a5df 343e b2e7 9cbd 92fc 083d ade2 f8bd
000001e0: 5491 a83d 38a2 083e 9abd ba3e 333d 173e
000001f0: c4fd 7abe bf92 813e b1ef 8b3e b201 a13d
00000200: dc14 4dbe 28a2 f0bd e1ff 82bd a164 6c3e
00000210: 91cb 9e3e e617 cbbd a51a 38be 3c76 f0bd
00000220: e7ae 5e3d dc26 353d 3085 8dbd 46a6 b5bd
00000230: bd2b 7e3e affa d2bd a378 63be 6adc 75be
00000240: d044 b33d 6f4c c33e 405c a7bd 1040 0fbc
00000250: 9e81 b03e 0337 8bbe 7c1d 1fbe 0bd4 0c3e
00000260: e1ab 8c3d ef49 94bc b6a9 35be a8ee 61bd
00000270: 29b6 98bd 7621 743d 80ea d73d 0ffe 653e
00000280: 6c75 a33e b70a 5fbd b6ee d93d 33a6 b2be
00000290: 1c2e 6c3e dc19 1a3e 2201 bc3d 4008 0dbe
000002a0: 0626 c4be f694 86be 5b4c 23be 283a 8dbd
000002b0: f0f4 863e 350d ddbc c33d ac3b f3b7 27bd
000002c0: 43e5 39be 46c2 47be 7ed1 33ba 886a 9cbe
000002d0: c81a 0ebd 79bd 9cbe d8f7 533e 5ec7 963b
000002e0: 6fcc 8dbe 2b17 133d 1ba9 dcbd 1875 27be
000002f0: 831e a33d 1607 56be 46b5 1fbc fab0 5dbb
00000300: c1f8 503e 4907 b53d e895 d4bc 65be 473d
00000310: 3963 97be 97bf 86bd 34f2 d83d 3d9d 453e
00000320: 0977 a73e 8efb 813e 0bb4 33bc 91a3 8bbe
00000330: 2b8d 9d3d ce03 613e e03d 85bd ec7a 10be
00000340: e042 863e 56e8 28bd 64e3 e43d 3772 bfbc
00000350: ce9b 583d 9909 7abe b491 843c 97e3 0fbe
00000360: f8f0 dfbd 33b7 98bd 4f61 f33d feac de3e
00000370: b5ea 3c3e 8e92 0e3e a98e 193e 89fe 173d
00000380: 6bb1 4b3d 68ff 1a3e 0f2e f53e 3761 cd3d
00000390: e239 77be ef74 883e ce75 57bd 88c6 a13d
000003a0: 4c9b 52bd 3b66 dfbd 11d1 d93c 9b65 1c3e
000003b0: 0b45 2f3e d155 113e 8b3e 53bd 0598 6a3e
000003c0: 96d9 57be fd9d 023e a044 f93c 5e06 c03d
000003d0: 25b3 49be 6dc1 f33d 0921 153e 1767 2d3d
000003e0: 31c8 683d 63cb 19be e399 8e3c 1c71 343c
000003f0: 3754 99be 1f7f 01be efb2 ddbd 7a7f 933e
0.17280582 -0.033568617 0.0740411 0.26074976 0.0683022 -0.1465648 0.030272316 -0.13648462
0.084441476 0.052379698 0.13010728 -0.10321332 0.30369875 0.03817106 -0.033457544 0.18735051
-0.14726728 -0.017248748 0.03754563 0.048238326 0.0054874546 0.092917785 -0.064219125 -0.094948374
-0.16456789 0.031612605 0.24718878 -0.32145855 -0.16063005 0.073251635 -0.27567226 0.06598006
-0.06291821 -0.2641659 0.17872763 0.0018362597 -0.05665505 0.12104613 -0.22390184 0.38988113
-0.15859227 0.16382961 -0.19440022 0.16762185 0.2020118 -0.016691327 -0.26918006 -0.10616428
-0.08952712 0.27247375 0.2785325 -0.069033556 0.043801308 -0.31747344 -0.45908564 -0.3100027
0.098294996 -0.06752885 0.01932971 -0.06490055 -0.14059997 -0.24924892 0.25728855 -0.191588
0.4698245 0.16035417 -0.1320599 0.007714793 -0.26740417 -0.038369004 0.18063079 -0.12978052
0.033960022 0.080129184 -0.037120305 0.046955753 -0.0140197445 -0.29429272 -0.13203248 0.011974015
0.02071824 0.21823259 0.22182553 -0.11895616 -0.011185278 0.14671017 0.36994112 0.11549051
0.1435018 -0.26179832 -0.0794762 0.051713947 0.09629246 -0.09036943 0.20911978 0.2743717
-0.25625563 -0.19253923 -0.05727704 -0.02712018 0.1694807 -0.30127952 0.29713714 -0.12665577
0.071298435 -0.0615223 0.33048213 -0.28445622 0.24374434 0.047873896 -0.027610073 -0.06448278
0.17764331 -0.043996662 0.08840014 -0.20505773 0.17663439 -0.0766138 0.033443995 -0.1215261
0.08230844 0.13343132 0.3647278 0.1476944 -0.24510866 0.2530727 0.27331308 0.078616515
-0.20027488 -0.11749679 -0.06396461 0.23085262 0.31014684 -0.09916668 -0.17978914 -0.117413014
0.05436602 0.044226512 -0.06910169 -0.08869605 0.24821372 -0.1030172 -0.22213988 -0.24009863
0.08753359 0.38144252 -0.08171892 -0.008743301 0.3447389 -0.27190408 -0.15538591 0.13752763
0.06868721 -0.01810166 -0.17740521 -0.05515924 -0.07456619 0.059602223 0.10542774 0.22460197
0.31925523 -0.054453578 0.106412336 -0.34892425 0.23064464 0.15048927 0.091799036 -0.13772678
-0.3831026 -0.26285523 -0.15947096 -0.06895858 0.26358747 -0.026983837 0.005256386 -0.040946912
-0.18153863 -0.19507703 -0.0006859525 -0.30550027 -0.03469351 -0.30613306 0.20700014 0.004601403
-0.27695033 0.035910767 -0.10774442 -0.16353261 0.07964804 -0.2090114 -0.009747809 -0.003382741
0.20407392 0.0883928 -0.025950387 0.04876556 -0.29567888 -0.065795116 0.105930716 0.19298263
0.32708004 0.25387233 -0.010968219 -0.2727323 0.07692941 0.21974108 -0.06505942 -0.14109391
0.26222897 -0.041237198 0.11176184 -0.023369892 0.052882962 -0.24417724 0.016182758 -0.14051662
-0.10934633 -0.074568175 0.118837945 0.43491358 0.18448909 0.13923094 0.14995827 0.037107978
0.049729746 0.15136492 0.47886702 0.10028308 -0.24143174 0.26651713 -0.05260258 0.07899195
-0.051417634 -0.10908171 0.026588948 0.15273134 0.17116182 0.14192893 -0.051573317 0.22909553
-0.21079096 0.1275558 0.03042823 0.093762144 -0.19697244 0.119021274 0.14563383 0.042334642
0.056831542 -0.15018992 0.017407363 0.0110132955 -0.29947063 -0.12646149 -0.108251445 0.28808194

critic.2.bias f4 [64]
00000000: fc12 6dbd 54d2 7a3d 3041 79bd e75e 63bd
00000010: 234d 7fbd d3f8 6fbd c56f 843d ab70 59bd
00000020: e8ba 6ebd 9e79 80bd 859b 91bd 392e 5dbd
00000030: a26b 29bd 8329 82bd 2733 783d 246d 81bd
00000040: 7a27 b13d 1c4d 7dbd b7d1 7f3d de81 6a3d
00000050: 993d 6b3d e189 72bd 7acd 60bd 2f81 85bd
00000060: 0f55 7c3d 27e7 8dbd b9b3 5abd 4c81 8f3d
00000070: 6c9d 6ebd 9b62 90bd a7ae 6bbd 4b04 a93d
00000080: cea3 77bd c595 763d e744 9d3d 1a67 7f3d
00000090: ba01 6c3d b82c 72bd 84b0 883d 93de 833d
000000a0: f463 7bbd 6ac3 6f3d ddd9 74bd f2c1 78bd
000000b0: 4fc3 4fbd 3c35 91bd f4ed 583d 1732 57bd
000000c0: 2476 7bbd 9b10 78bd e17e 623d fd9e 713d
000000d0: 4ce1 8bbd c463 84bd 13ae 8b3d 1dc9 89bd
000000e0: ac99 77bd dea6 773d 378b a1bd 05ef 8bbd
000000f0: 1f4d 9bbd 3953 783d eb78 75bd c229 88bd
-0.057879433 0.06123574 -0.060853183 -0.055510428 -0.062329423 -0.058586907 0.06466631 -0.053085964
-0.058283716 -0.06273197 -0.07109741 -0.05399916 -0.041362412 -0.06355574 0.060595658 -0.06319645
0.08650108 -0.061841115 0.06245586 0.057252757 0.05743179 -0.059213523 -0.054883458 -0.065187804
0.061604556 -0.069288544 -0.053394053 0.07007083 -0.058255598 -0.070500575 -0.05753961 0.08252772
-0.06045895 0.060201425 0.07679158 0.062354185 0.057618834 -0.05912468 0.06674293 0.06438937
-0.06137462 0.05853597 -0.059778083 -0.060731836 -0.05072337 -0.07090232 0.052961305 -0.052538004
-0.061391965 -0.06056271 0.055296782 0.058989514 -0.06830081 -0.06464341 0.068203114 -0.067278124
-0.060449287 0.06046187 -0.07887881 -0.06832699 -0.07583069 0.060626242 -0.05992977 -0.0664859

critic.4.weight f4 [1, 64]
00000000: 8026 bcbd 522e 633e 2911 5cbe 480b f8bd
00000010: 2653 bbbd 3595 35be 0686 933d cad5 39bd
00000020: 17c9 fdbd 6638 29be 226b 3fbd fd64 96bd
00000030: bd61 01bd cf1e 2dbe 371d 643e 4f65 ebbd
00000040: 0d88 ed3c e86b 8cbd ba66 013e 6226 973e
00000050: 0861 753e dab4 ddbd 3705 0bbe c50c bcbd
00000060: dc41 f33d 5937 adbd 30ac 89be 760b 333d
00000070: 1c3c 8cbe 6c5c 8dbd 57ed 8bbe 406e 4a3d
00000080: d621 72be 5b16 3f3e 4676 4b3d be84 b33d
00000090: 3e85 ae3d b5df 8ebe e609 8b3d f418 093e
000000a0: a7bf 9abe bf03 813d 2587 4ebe 32f9 10be
000000b0: 11f1 1abd aa52 bcbd a7de d53d ff29 b8bd
000000c0: a7f4 eebd 10e6 a7be 8768 933d e90c ab3d
000000d0: 568a 69bd 423e 49bd 37be 973d bb0f 07bd
000000e0: 1fa7 90be 0a07 5b3e 87fd a4bd f234 05bd
000000f0: f3f3 8fbd 2220 b23d 2b23 a2be 1f90 89bd
-0.09187031 0.22185639 -0.21490921 -0.12111527 -0.09146719 -0.17732699 0.07203297 -0.0453699
-0.123918705 -0.1652542 -0.04673303 -0.07343481 -0.03158735 -0.16906284 0.2227677 -0.114939325
0.028995538 -0.06856519 0.12636843 0.2952147 0.23962796 -0.1082551 -0.13576208 -0.09182123
0.11877796 -0.08457822 -0.2688918 0.043712102 -0.2738961 -0.06902394 -0.27329513 0.04942155
-0.2364572 0.18660872 0.04967334 0.08765553 0.08521508 -0.2790505 0.06788997 0.13388425
-0.30224344 0.06299543 -0.20168741 -0.1415756 -0.037827555 -0.091954544 0.10442858 -0.08992385
-0.116677575 -0.3279271 0.071976714 0.08352072 -0.057016693 -0.04913164 0.074093275 -0.032973986
-0.28252503 0.21389404 -0.08056169 -0.032521196 -0.070289515 0.08697535 -0.31667456 -0.06716942

actor.0.weight f4 [64, 5]
00000000: 983a efbc 739f 07bf 1a1f 413e 9dc3 513d
00000010: 93de 2dbe 9fd2 72be 9824 52be 0550 c13d
00000020: af2f 2a3e ae43 493c 4b7c 123e c39d 653e
00000030: de8c 2b3d 5a9f b8be 8040 2dbe 57ba 8d3e
00000040: 9fca b4be f1ee f5bd 000f 093e 5d9f 48bd
00000050: ae73 66bd c578 c03e a4cf 4d3e 11ab a5be
00000060: 6057 32bd fd5e 63be f765 913e 992e 1abe
00000070: 3f45 b43c 2340 033e 21d0 21be dc1b 523e
00000080: 7c20 143d 25e3 ae3d 5935 d3bd 7a2e 88be
00000090: 70a7 3d3e 76b3 573c 9e9d 67be 75f3 ac3e
000000a0: fcec bbbb 7522 a2be 5ee4 cc3d 1e99 24be
000000b0: dcfe 2abd 8f7d abbc 0092 c2be a28b 1e3e
000000c0: 7836 d93c 988d b63c 1b36 3c3e 6592 123e
000000d0: 6906 c8bc 8a3f 39be e8ed 5e3e b7e1 163c
000000e0: 7d24 94be 3871 af3e f504 3dbd e34d 163f
000000f0: 0b88 54be 1a3a b7be dc9a 2bbe ae36 4ebd
00000100: 61bb 773d fdda b73d 81ca b2be 2e54 eebe
00000110: 448a 8bbd 3167 e43d b8bb 373e 33f7 8bbe
00000120: 3bd5 33be 5c9e 17bd ca05 c7bd 1245 23be
00000130: 866e 2dbe 773d 7abe f434 4a3d 3dd9 333e
00000140: ea08 7ebe ce1f 7c3e 253e 423d 672b 80bd
00000150: 5673 e73d 64e3 863d 54f5 163e de3e 9abd
00000160: 531e 6dbe b6c6 d33e ac8f b03d 0fab a93d
00000170: f27e 54be 8b35 3bbe 5263 81be fbb2 5dbe
00000180: cff6 7e3e b230 303e d484 c2be ce28 c93d
00000190: eb72 543e f429 1d3e 7af9 f43c ea47 f7bc
000001a0: 3598 82bd d558 8fbe 5483 05bd b43b 87be
000001b0: 4ebb 4f3e ebea 103c 874f 513e 1b16 11bd
000001c0: af0a 8f3e 001e 52bc 1556 6b3e bb34 853e
000001d0: 1acb 04be 907b 0fbe 8f96 b4be bce5 4fbd
000001e0: 5ea4 023d 1120 74be 02e5 8dbd af22 d6bd
000001f0: 7602 103e 5c23 423e e6ca 7f3e 7134 233e
00000200: 6592 ccbd 584d 3a3e 71f3 55be 2a15 11bd
00000210: 4f23 f23d 404c 95bd bb49 95be 181f 5e3b
00000220: 767e 093e e9fc bdbd 8293 14bd 7c78 49be
00000230: 158b 3fbd 137e 66bc 27cc 293d d86d 7bbe
00000240: 72d6 82be 37f8 85bd 03d7 a7bd 1948 203e
00000250: 4505 dd3d 594e 63be 205c 213e 9a92 c3be
00000260: 2a4c 52be 7f70 9b3e e94f c8bc 7db1 783e
00000270: 0d02 3b3e 5acd 23be 61a3 8dbd f276 4e3d
00000280: 5b64 6fbd 5322 043c b35e 81be 1c9b 383d
00000290: 81d1 2a3e 90f1 0fbe 77c3 5c3e 7132 003e
000002a0: 1644 d7be d197 173e 661f bb3d 9dc2 68be
000002b0: 4357 d8bd cd98 e13c f234 d2bb 1be2 cdbd
000002c0: cd1b f9be f355 afbe 1a89 48bd 661a 0b3e
000002d0: 2d3c 9f3e f710 c13d e9b9 613d af22 79bd
000002e0: 044b 813d 8275 8fbc e216 91bd 105d 73bb
000002f0: 21ea 2c3d 7627 403e 2b4d 7b3d 7f91 a43e
00000300: 2ba3 aa3d 88b2 85bd cdfc 85bd 5bdb 163c
00000310: 4a32 a5bd 2b5d af3c 25cf b4be 4fdf 65be
00000320: 1d28 bd3b ed8c ac3e 1c92 78bd 6946 08be
00000330: 6e53 fcbd 0695 94be 87a6 ec3d b4c1 013e
00000340: 488e 4fbe 1181 573d dca0 733e 270f 95be
00000350: 8e6a 39be 27a9 1fbd d917 cc3d 2c75 1e3d
00000360: 3a2a 933e cb79 bebe 7f71 82bd f7cb 84bd
00000370: 97ab fabd 56de 5abd 6675 483d f463 1fbc
00000380: b31f 3f3e 8355 f03d 7c7a 673d d4d3 0abe
00000390: fdb4 633e e743 3e3e 48ba 5abe b175 06bf
000003a0: c7d8 a63d ec3a 9d3d 86a0 7d3d 8e15 e7bd
000003b0: db80 78be e12e ecbd 2762 b93c b2aa 78bc
000003c0: 0906 90be 015a d0be 80d9 133d 552b a93d
000003d0: 4dca 893d 1ee5 c6be 83eb 91be 297f dc3d
000003e0: 2adb 3c3e 7003 ad3c 6edc 8dbd a2ee 75be
000003f0: c0c3 c2bc ccde 9f3e dcd1 8abe c663 85bd
-0.029202744 -0.52977675 0.1885952 0.051211942 -0.16979437 -0.23713158 -0.20521772 0.09439091
0.16619752 0.0122842025 0.14305227 0.22423463 0.04188239 -0.36059076 -0.16919136 0.2768123
-0.35310838 -0.12008465 0.13384628 -0.048980106 -0.056262664 0.3759214 0.2009874 -0.32357076
-0.04354036 -0.22204204 0.28398106 -0.15056838 0.022005675 0.12817435 -0.15802051 0.2051844
0.036163792 0.08539418 -0.1031291 -0.2659796 0.18520904 0.013165345 -0.2261872 0.33779493
-0.005735038 -0.31666914 0.10004495 -0.16074035 -0.04174696 -0.020933894 -0.38002014 0.15482953
0.02651523 0.022284314 0.18380015 0.14313658 -0.02441712 -0.18090644 0.21770442 0.009209088
-0.28934088 0.34266067 -0.046147306 0.58712596 -0.20755021 -0.35786515 -0.16758293 -0.050345115
0.060481433 0.089773156 -0.34920123 -0.465486 -0.068134815 0.11152495 0.17942703 -0.27337036
-0.1756181 -0.037016258 -0.09717901 -0.15944317 -0.16936693 -0.2443751 0.049366906 0.17563339
-0.24808088 0.24621508 0.047422547 -0.06258278 0.113012955 0.0658634 0.14742023 -0.07531522
-0.23156099 0.41362542 0.08621153 0.0828458 -0.20751551 -0.18282144 -0.25271088 -0.21650307
0.24898838 0.17206076 -0.37991965 0.09822236 0.20746963 0.15348035 0.029904116 -0.030185658
-0.063766874 -0.2799746 -0.032595947 -0.26412737 0.20286295 0.008845071 0.20440494 -0.035421472
0.27937838 -0.012824535 0.22982056 0.26016793 -0.12968102 -0.14011979 -0.35271117 -0.0507562
0.031895034 -0.23840357 -0.069284454 -0.10455834 0.14063439 0.18958801 0.24979743 0.15937974
-0.0998886 0.18193567 -0.20893647 -0.035420574 0.11823141 -0.07289934 -0.29157814 0.0033893045
0.13427147 -0.092767544 -0.036273487 -0.19674867 -0.0467635 -0.014068144 0.04145446 -0.24553621
-0.25554234 -0.06541484 -0.08195307 0.15652503 0.10792021 -0.22197856 0.15757799 -0.38197786
-0.20536867 0.30359265 -0.024452167 0.24286456 0.18262501 -0.15996304 -0.06915928 0.050406404
-0.058445316 0.008064824 -0.25267562 0.0450698 0.16681482 -0.14056993 0.21558939 0.12519242
-0.42044133 0.14804007 0.09136848 -0.22730489 -0.10563519 0.027538681 -0.006415003 -0.10052892
-0.48654023 -0.34245262 -0.048958875 0.13584289 0.31100598 0.09427064 0.05510894 -0.060824092
0.06313136 -0.017512087 -0.07084443 -0.0037134327 0.04221547 0.18765053 0.06135289 0.32142255
0.08331903 -0.06528193 -0.065423585 0.009207572 -0.080662325 0.02140673 -0.3531429 -0.22448467
0.005772604 0.33701268 -0.060686216 -0.1330811 -0.123206005 -0.29019946 0.115552 0.12671548
-0.2026912 0.05261332 0.23791832 -0.29113123 -0.18107054 -0.038979676 0.09965486 0.038685963
0.28743154 -0.37202296 -0.06369304 -0.06484216 -0.122397594 -0.053434692 0.048940085 -0.0097284205
0.18664436 0.1173506 0.056513295 -0.13557369 0.2223701 0.1858059 -0.21360123 -0.5252333
0.08146816 0.07677254 0.061920665 -0.11283408 -0.24267904 -0.11532379 0.02262981 -0.015177416
-0.28129604 -0.40693668 0.036096096 0.08260218 0.06728039 -0.38846678 -0.28499994 0.107664414
0.1844298 0.021119803 -0.06926809 -0.24016812 -0.023774981 0.31224668 -0.27113235 -0.06513171

actor.0.bias f4 [64]
00000000: 2991 30bd 7277 e6bc a916 f63c f672 65bd
00000010: 5e66 4e3d a1f0 243d d38b 093d ec7e 373d
00000020: b29d fabc b830 00bd f76d 0a3d c08e cabc
00000030: c734 e0bc 2729 0ebd 1dc9 33bd 0787 f5bc
00000040: 0367 823d 0260 243d 7285 ab3c 1b97 453d
00000050: f33e e43c 26be b7bc 1466 763c 58a1 753b
00000060: 4cb4 4ebd be2c e63c 660a 893c f3c0 ee3c
00000070: 24e4 773c 06c7 1abd d8db 19bd 4521 1f3d
00000080: 88a3 11bd 6222 513d 036f 77bd fba0 b4bc
00000090: bda7 013d 3e55 febc b1c2 133d a6f1 9e3c
000000a0: 8454 373d 98a2 5b3d e1a7 30bd a661 f93c
000000b0: b944 9cbc 150c e3bc c3f8 fabc 2cfe f9bc
000000c0: 7ecd f2bc 55d9 e3bc 0fcb 52bd dbf2 2dbd
000000d0: 2937 1abd 705e 0dbd 6225 343d dde3 20bd
000000e0: 7ed4 3a3d d88b ab3b 3b79 eb3c b69e ffbc
000000f0: ec6c ac3c b03d 083d 6942 f4bc a414 203d
-0.043107186 -0.028133128 0.030040102 -0.05601784 0.050390594 0.040268544 0.033580612 0.044798777
-0.030592773 -0.03129646 0.033796277 -0.024726272 -0.027368916 -0.034707215 -0.04389297 -0.029971613
0.06367304 0.040130623 0.020937655 0.04823981 0.027862048 -0.022429537 0.015038986 0.0037480202
-0.050464913 0.028097507 0.016728591 0.02914474 0.015130077 -0.03778746 -0.037563175 0.038850088
-0.035556346 0.05105818 -0.060408603 -0.022049418 0.03165411 -0.031046506 0.036074344 0.019402336
0.044758335 0.05362186 -0.04312885 0.03044207 -0.019075738 -0.027715722 -0.030636197 -0.030516706
-0.029639002 -0.027813593 -0.051463183 -0.042467933 -0.03765026 -0.03451389 0.043980964 -0.039279807
0.045612805 0.0052351765 0.02874433 -0.031203609 0.021048032 0.033261955 -0.029816823 0.039082184

actor.2.weight f4 [64, 64]
00000000: 4df3 39bc 9266 623d 1a3e bebe 68f6 5f3e
00000010: 629b 6ebe 6c98 59be b5b5 dc3e c77c 41be
00000020: 2a96 6dbb c1d3 b1bd de26 603d 4414 313e
00000030: e8a1 3b3c 7b28 64bd 7fba 383e f9bb b9bd
00000040: 97bf c2bd 67eb 2ebe eea3 033f 512b 32be
00000050: 1e7c 423e 361d 3f3e b87a 9f3e 9b91 8fbe
00000060: 3279 ca3c 768f 15be d5db c0bc b2bb 393d
00000070: 4d8f 67bd 00f6 093e 4a91 103e d0b5 a3bd
00000080: 2a10 013d e5fd d3bd 05a3 5d3e db43 703d
00000090: 8ab4 3cbe 5f6a de3d 44f4 96be ccd5 223e
000000a0: e3da 62be ce65 7bbc d7f2 a93c 2a46 5b3e
000000b0: ce18 ccbd 050c 633e 7dc1 663e 0af7 a73e
000000c0: 89df 8e3e 86c7 cabd 8a96 6f3e be42 9dbd
000000d0: 6b11 003e 3f12 283e f5fb fbbd 5d1b a73d
000000e0: 921d 24bd 1ca4 a9bd b434 bfbd af9a 9bbe
000000f0: 2e4e ee3d 9e70 f5bd f41f 9a3e 9882 abbe
00000100: ebec 923c ec8d 8c3e a69c 8ebd 1929 9abe
00000110: 9f7a 19be 685d 9ebe 7a47 55be dfa6 21bd
00000120: 92c3 f8bd 8550 fc3d e457 59be 2f34 833d
00000130: 34d0 b23e a39e 533d dd48 573e 068a e0bd
00000140: 3236 423e 7012 d9bd 0a3f eb3d 91bc 823e
00000150: 46df a03d 966b 693d 39f2 c1be 8fc3 f5bd
00000160: 79b4 e6bb f166 0ebe bab4 20bd 8407 e23d
00000170: 1c19 46be 8fd9 833d 656e fc3d be02 0f3e
00000180: 0fb9 6dbe b4a6 97bd 4da2 b13d 1496 aabe
00000190: 8401 3fbe 639e a43d 6527 15be 947b 153d
000001a0: 61ec 0d3e fe41 1d3e dc30 99bd 8072 a0bc
000001b0: e186 8ebe 7b29 843c 06a3 b73e 9641 4f3d
000001c0: bb6d 0b3e 6855 9c3e 38a6 3f3e 1d42 7b3e
000001d0: 3039 e13d 59d7 17be dd14 80be 01df 473d
000001e0: ded3 cdbe 83b9 943e e0e9 7abe f0bf 713e
000001f0: b0af fd3c c5b5 74bd 0a11 d13d e2bc 3b3d
00000200: 6d28 2dba 3b68 3abe 3a8b 17ba 0a16 1d3e
00000210: 681d 953e 385a 66be e26c 6fbd bfd8 193e
00000220: b777 15be 7c2b 693d 9888 c8bd 46e8 17be
00000230: bddc f7bd 29e0 a93d cd62 0abe 755d 53be
00000240: 89a4 f83d 8fdc 813e 398e 433e 79d4 e03d
00000250: ef6a bb3d 352d a3be 7f02 32be 26f1 d23c
00000260: 592c 223e 9304 66be 3cd9 bfbd 9788 533e
00000270: aa18 e7bc 80cb 083e 9f25 31be c69b 3abe
00000280: 4e44 86be 2483 b43e 39c7 91bd c555 edbd
00000290: 4695 693c c7f0 823d 79e0 9f3e 8706 223e
000002a0: 288a 9abc f7e0 1abd d40f 6bbd 9d51 943e
000002b0: 4572 0a3e 499f 9cbe 22cb 61be 20e0 243e
000002c0: 98ee 4fbe a891 113e 6a36 6fbe 669b 2d3c
000002d0: 644e 1dbe 6341 2fbe fe90 c03d e2d6 29bc
000002e0: fce3 2fbd e62b 7cbe 3a71 28bc 0671 16be
000002f0: 563d 923d 95b8 efbd a452 cebe 5091 03bf
00000300: f0fa 33be 32f0 8abd 7967 e83e 880b 92be
00000310: 3260 7d3e 5ef4 00be bfab f53d 8ec3 88be
00000320: 7c48 0dbe 84cb 203b 9989 4dbe 90be f5ba
00000330: 9c7b 413c 016f 913d c8aa 15be 5a19 69be
00000340: f8b8 10be bd1c 61be f9e6 c4bd eec8 c8bc
00000350: 0464 4e3d 9e4f 5abd 960a 993e 6c71 923d
00000360: 5985 38bd ff9f 403e 2d84 42be 51ab 3abd
00000370: e620 023e 16a2 293d ea7e 63bd e58d 55be
00000380: e3c0 8d3e ad2a 8bbe dc41 a6bc a220 56be
00000390: b779 c1bd a8d4 73be 98dd 983d 7aaa 0d3e
000003a0: 8ef8 1ebd ba53 0bbe cbb1 1d3e 4a3d 37be
000003b0: e3a6 5abc 1d3e d03d bc80 0dbd 0e4d 8bbe
000003c0: 6546 b8bc 8bf5 903e 0044 93be 0660 54bd
000003d0: 7bcb 093e 10df 4bbe 0dd9 c73d 2f31 8abe
000003e0: 590c 8e3d c26d febd 93f0 eabe b52f 4bbe
000003f0: a311 a43e d663 19bd e7a6 3ebe 03bc bcbd
-0.011349511 0.0552736 -0.37156755 0.2187134 -0.23301461 -0.2124955 0.4310738 -0.18895255
-0.0036252835 -0.08682967 0.054724567 0.17292887 0.011452176 -0.055702668 0.18039893 -0.09069056
-0.09509199 -0.17081986 0.5142201 -0.17399336 0.1899266 0.18663487 0.31148314 -0.28040776
0.024715994 -0.14605507 -0.023542324 0.045345016 -0.056533147 0.13472748 0.14117923 -0.07993662
0.031509556 -0.10351161 0.21644218 0.058658462 -0.18428245 0.108601324 -0.29483235 0.1590187
-0.22153811 -0.015344096 0.020745678 0.21413484 -0.099656686 0.22172554 0.22534747 0.32805663
0.2790492 -0.09901337 0.2339727 -0.07678746 0.12506644 0.1641321 -0.12303916 0.08159516
-0.040067263 -0.082832545 -0.09336224 -0.30391452 0.11636005 -0.11984371 0.30102503 -0.33498073
0.017935237 0.27452028 -0.06963472 -0.3010948 -0.14988182 -0.30930638 -0.20828047 -0.03946578
-0.12146677 0.123200454 -0.21224934 0.064064376 0.3492447 0.05166496 0.21023889 -0.10963826
0.18965986 -0.1059922 0.11486633 0.2553449 0.07855086 0.056987368 -0.37880114 -0.120001905
-0.007040557 -0.13906457 -0.039234854 0.1103659 -0.19345516 0.064379804 0.123257436 0.1396589
-0.23215126 -0.07404843 0.086735345 -0.33317626 -0.18652922 0.08038022 -0.14565809 0.036494806
0.13859703 0.15357205 -0.07480022 -0.019585848 -0.2783728 0.01613306 0.35866565 0.050599657
0.13616078 0.3053391 0.18715751 0.24536939 0.10997236 -0.14828242 -0.25015917 0.048796657
-0.40200704 0.29047784 -0.24503279 0.23608375 0.030967563 -0.05974366 0.10208328 0.04583443
-0.000660545 -0.18203823 -0.0005780939 0.15340438 0.29123998 -0.22495353 -0.058453448 0.15024088
-0.14596449 0.056926236 -0.09791678 -0.14834699 -0.12102649 0.08294708 -0.13514252 -0.2064112
0.121407576 0.25363585 0.19097222 0.10978026 0.09151255 -0.31870428 -0.17383765 0.025749754
0.1583723 -0.22462682 -0.09367606 0.20657574 -0.028210003 0.13358879 -0.17299508 -0.18223485
-0.26223987 0.35256302 -0.07118077 -0.11588625 0.014256781 0.06393581 0.31225947 0.15822802
-0.018864706 -0.0378122 -0.05738814 0.28968516 0.13520153 -0.30590275 -0.22050145 0.16101122
-0.2030586 0.1421572 -0.23360601 0.010596132 -0.15361935 -0.17114787 0.09402655 -0.010366173
-0.042942032 -0.24626121 -0.010280902 -0.14691553 0.07140605 -0.11705128 -0.40297425 -0.51393604
-0.17576194 -0.06784095 0.45391443 -0.28524423 0.24743727 -0.12593219 0.119956486 -0.26711696
-0.13797182 0.0024535367 -0.2007202 -0.0018748809 0.011809256 0.071012504 -0.14615929 -0.22763577
-0.1413306 -0.21983619 -0.09614367 -0.024509873 0.05038835 -0.053298585 0.2989089 0.0715054
-0.045049045 0.18811034 -0.18995734 -0.045573536 0.12707862 0.041414343 -0.055540957 -0.2085491
0.27686223 -0.27180997 -0.020295076 -0.20910886 -0.094470434 -0.2381159 0.07464141 0.13834563
-0.03881126 -0.13606158 0.15399854 -0.17894474 -0.013345453 0.10168097 -0.0345466 -0.27207226
-0.022494504 0.28312334 -0.28762817 -0.051849388 0.13456528 -0.1990931 0.09758196 -0.2699065
0.06935949 -0.124232784 -0.4588667 -0.19842418 0.32044706 -0.037448727 -0.18618356 -0.09215548

actor.2.bias f4 [64]
00000000: 94b3 46bd 6eaa f8bb f8cb d73c b62d 493c
00000010: b70c f1bc e7ab e6bc 13e6 e3bc d86c e5bc
00000020: 9d39 18bd b785 f23c ced3 e2bc b377 1cbd
00000030: c571 343d 6bf7 27bd 1138 f5bc 1ec1 c1bc
00000040: 9b0f e63c 5504 f43c 1e91 093d 7d9a 81bc
00000050: fd46 aa3a dfba a03c 2806 f03c 7cda 273d
00000060: 8e2c f6bc 5a6b 133d bbb1 ae3c d67b b33c
00000070: b10c 4ebd fb0b d63b 2e57 0ebd 210a 32bd
00000080: 18d7 163d 5c16 8f3c 6227 37bc 331a 1dbd
00000090: b9b5 12bd 3cb0 d63c 77d9 d7bc 47ff 193d
000000a0: b329 183d dc67 4fbc 48e4 a13c 7732 eabc
000000b0: f5e2 a4bc 923e a9bc 12b5 babc 485a 273d
000000c0: 4f14 9d3c 6f1d 01bd c68e 563d 933e 973c
000000d0: bad1 ef3c 4e86 cebc 149b 153d 6959 913c
000000e0: a4e5 223d 61d2 f33c e486 84bc 5b96 75bc
000000f0: e1fc 09bd 246f f0bc 3135 b6bc 9c64 a03c
-0.048511103 -0.007588676 0.026342377 0.012278965 -0.029425008 -0.028158141 -0.027819669 -0.028006002
-0.03716432 0.029604776 -0.027688887 -0.03820009 0.04405381 -0.04100744 -0.029933961 -0.023651656
0.028083613 0.029787222 0.03358566 -0.015820736 0.0012991127 0.019620357 0.02929981 0.040979847
-0.030050542 0.03599105 0.021324983 0.021909636 -0.050305072 0.00653219 -0.03475111 -0.04346669
0.036826223 0.017466716 -0.011178823 -0.038355064 -0.035817835 0.026207082 -0.026348813 0.037596967
0.037149142 -0.012659039 0.019762173 -0.028588517 -0.020127753 -0.020659719 -0.02279142 0.040857583
0.019174723 -0.03152221 0.052382253 0.018462455 0.02927481 -0.025210526 0.036524847 0.01774283
0.039769784 0.029763402 -0.016177602 -0.014989461 -0.03368843 -0.029349871 -0.02224216 0.019579224

actor.4.weight f4 [3, 64]
00000000: ca28 39bd 247f 4bbd da54 7f3d fe20 133d
00000010: 32f8 58bd 322b 99bd 317b 78bd 1006 9abd
00000020: 050e e6bc 1318 e63c e737 a0bd 4899 7dbd
00000030: ac47 8a3c 1e18 fd3b fdf1 42bd e1b2 b3bc
00000040: 5b31 913d abd9 d2bc 4503 8b3d 596d 9bbd
00000050: eeca 8a3b 2cf4 273d 164f 703d bb13 d83c
00000060: a1ba 6bbd 616d 023d c074 583d 4ec5 9a3c
00000070: bd4d 433a ae51 163d 1839 7ebd e375 0cbd
00000080: 9f81 973d c0e7 a73d 1edb 45bd 7240 033c
00000090: faef 68bc 3057 a03d 74e4 9ebd a804 883d
000000a0: 88fb 1c3d 0d95 e93b 5d20 673d 6b3b 9cbd
000000b0: 37d8 7abd ca40 95bd b204 87bd 1630 75bc
000000c0: 7219 8b3d ca86 98bd 315d c13c d758 9d3d
000000d0: 36b4 a23d fab4 9ebd 5514 963d 7851 513d
000000e0: 38a5 0a3d aefe 293d b642 4cbd 8302 4abc
000000f0: 5b59 0bbd 5a61 ebbc b35a f5bc df82 953d
00000100: c8d8 cbbc 70f9 c23c 2036 35bc f148 12bd
00000110: f92b 83bc e164 9b3c ca32 22bc a2a7 4abc
00000120: 888a 97bc 2302 373c d07b f43b 4f4e e0bc
00000130: 79db 023d 59ca 37bd 1688 a83c 5247 443c
00000140: 9dab df3b 5629 2b3d 359a 113c 3563 233d
00000150: 88c4 96bb 9048 e1bc b774 333c 26ed c83c
00000160: c4c1 80ba 94c7 0e3d 6e18 8fbc 0bfb 05bc
00000170: 3fd2 3dbd b541 10bd 0348 6a3c 4000 14bd
00000180: f85b 383c 37e0 00bd 8631 343d 2b47 31bd
00000190: 343c 12bc 0b60 d43b 7cd5 3c3a 5956 c7bb
000001a0: dfeb a33b 110d 7ebc f104 eebc b6f7 3f3c
000001b0: 1ea6 893c bad9 c73c a0e8 be3c 784c 523d
000001c0: 0177 c0bc daf6 5d3c 0883 eb3c c67c adbc
000001d0: 4ed9 f43b b132 6f3b e657 073c b6d9 e1bc
000001e0: bdba 3c3b f798 69bc 6592 f83c f27a ec3b
000001f0: fc9c 68bc 643a 1d3b 0326 7c3c 8e90 d9bc
00000200: d1d6 ae3d 2a22 e13c 02d2 30bd 7efa 31bb
00000210: 0b06 883d d146 6c3d b9cc 863d b84c b53d
00000220: 652e 573d 105a 4dbd d846 993d 7187 c43d
00000230: 10e3 77bd 3a99 313d b3c4 093d 4a7c 723c
00000240: 2a0a 98bd 79e5 c3bc 0be1 a6bd f020 053d
00000250: 500f b5ba 0c14 c4bc 7336 82bd ec77 6fbd
00000260: a6eb 513d c52b 88bd 7732 0dbd 924c 15bc
00000270: 515b 703d dd43 9abb 6705 633d da0b a63d
00000280: 5a87 c0bd 66b7 3bbd c8b6 a6ba ca7d 3c3d
00000290: 3f52 c03c 6984 acbd 104a 9e3d 803a 93bd
000002a0: 2ca3 44bd fd5e d43b 174a eabc f61e 8b3d
000002b0: 2247 453d db9a 5c3d 3122 333d f92f 2bbd
000002c0: 2145 20bd b9a9 863d 999c 6dbd edab 78bd
000002d0: 9651 b5bd 16ef 983d b0fa b2bd 5c29 a2bc
000002e0: be4c 54bd c57a babc c698 c83c 7c38 ba3a
000002f0: 27e4 813d c83c 1b3d 9b70 863c 951f 47bd
-0.045204915 -0.049681798 0.06233678 0.035920136 -0.052971072 -0.07478942 -0.06066436 -0.075206876
-0.028082857 0.028087651 -0.078231625 -0.06191376 0.016879879 0.0077238223 -0.04759406 -0.021935882
0.07089492 -0.025738558 0.06787733 -0.07589216 0.004235617 0.041004345 0.058669172 0.026376596
-0.05755103 0.031842593 0.052845716 0.01889291 0.00074502436 0.03669899 -0.062066168 -0.034292113
0.0739777 0.081985 -0.04830467 0.00801097 -0.014217371 0.0782913 -0.07758418 0.06641513
0.038325816 0.007128364 0.05642735 -0.076285206 -0.061241355 -0.07287748 -0.065926924 -0.014965078
0.06791963 -0.07447584 0.023604007 0.076829605 0.07944529 -0.07749362 0.07328097 0.051103085
0.03384897 0.041502647 -0.049868308 -0.0123297 -0.034020763 -0.028732944 -0.029950475 0.07300352
-0.024883643 0.023800582 -0.011060268 -0.035714094 -0.016012179 0.018969001 -0.009899804 -0.012369068
-0.018498674 0.011169943 0.0074610487 -0.02738109 0.031947587 -0.04487071 0.020572703 0.011979895
0.006825878 0.041787468 0.0088868635 0.039889533 -0.004601065 -0.02750042 0.01095312 0.024527144
-0.0009823372 0.0348583 -0.017467704 -0.008177529 -0.046343084 -0.035218913 0.0142993955 -0.03613305
0.011252396 -0.031463828 0.04399254 -0.04328076 -0.008925486 0.006481176 0.00072034425 -0.0060832915
0.0050024833 -0.015506045 -0.02905509 0.011716774 0.016802844 0.024395812 0.023304284 0.051342458
-0.023494245 0.0135476235 0.028749004 -0.02117766 0.007472194 0.003649872 0.008260703 -0.027569633
0.0028797828 -0.014257661 0.030343244 0.0072168047 -0.014197584 0.0023991102 0.015389922 -0.026558187
0.08537067 0.027482111 -0.04316903 -0.0027157362 0.066417776 0.057684723 0.065820165 0.088525236
0.05253448 -0.05013472 0.074842155 0.09596146 -0.060519278 0.04335902 0.033634853 0.014800141
-0.07423814 -0.023913132 -0.08148392 0.032502115 -0.0013813768 -0.02393534 -0.063580416 -0.058463976
0.051250122 -0.066489734 -0.034471955 -0.009112494 0.058680836 -0.004707797 0.055425074 0.08107729
-0.09400816 -0.0458292 -0.0012719268 0.0460184 0.023476718 -0.08423693 0.0772897 -0.07188892
-0.048007175 0.00648105 -0.028599782 0.06793015 0.04816354 0.05385862 0.04373378 -0.041793797
-0.039128426 0.06575341 -0.05801067 -0.060710836 -0.08853452 0.07467477 -0.08739221 -0.019795112
-0.051831 -0.02276362 0.02448691 0.0014207507 0.06342345 0.037899762 0.016411116 -0.048614103

actor.4.bias f4 [3]
00000000: 4758 00ba da68 003d e6db 03bd
-0.0004895967 0.031349994 -0.032192133
