models/ppo_pricing_agent_v2.pth (torch, 42409 bytes, 11 tensors)

critic.0.weight f4 [64, 5]
00000000: d6d6 06be c264 62bd 2b55 6e3e 0cbf 5dbe
00000010: 2b3f 033e 1a33 3cbd f995 653e a3d7 1a3e
00000020: 3874 5ebc 5820 8a3e 1581 ef3c ed16 773a
00000030: 393c 91bd a81d cdbd bcca 80bc 6f87 b7be
00000040: 18d0 123c 785e a9be c9b8 4cbe 992a 07bd
00000050: 40cb a1bc a59e c83c faa7 afbd 7252 45bd
00000060: 7f99 cbbd 03f8 473e 920a b13d 23ee bbbc
00000070: ebf1 50be 1c97 963c f051 1bbe 760e b6bd
00000080: bb28 f6bd 2b9c 673d 03c1 03bd 9a96 083e
00000090: da06 3dbd 3de2 c5be 6313 91be acf9 063e
000000a0: 0c6d ce3b 83fd 9cbe e7e1 813d f415 123e
000000b0: e9e7 f73d 36cb fe3d 968a c73d aa11 ca3e
000000c0: ca16 3c3e 3fa1 2a3e 66f3 893e bc0b 113d
000000d0: 2c47 63be f63f a3bd 9525 7f3d 31b7 a73d
000000e0: 88e6 053e f238 0abd 50ca 30bd 4fe9 cfbd
000000f0: 3a17 bfbd 755b 56be 92dc 8b3e a67b 8ebe
00000100: 9bc3 cb3d c1a4 9b3d b90d 373d 659c a13d
00000110: 5986 80bd b720 233e 552a bf3e f615 b3bd
00000120: 0326 b53d 6ecd c6bc 0518 07be b4ed 943e
00000130: b8d9 fcbe 1757 af3d 7bbe adbe bda8 eabb
00000140: 019f 313e c834 843e 8458 033e e933 d63d
00000150: d0d6 fc3d e9bf efbc 9abf 5cbd 8389 b43d
00000160: 66ea 513b dbaa 03be 36fd 9ebd d3fb b5bd
00000170: 8c17 2dbb 3841 c5bd 1a25 cdbd 8ec4 0a3e
00000180: 659b 25bd a473 fb3c 00da bcbd add6 79bd
00000190: dd64 1d3e 1370 0e3e 235b 08bc 7b45 a9bd
000001a0: 8964 8abe c8be c0bd 5009 67be 9b94 393e
000001b0: ba30 aabe 86bd b43d 1985 0abd 6885 c5be
000001c0: 5ca5 a4be 4f6e 083d e4fb 383e a5e8 7b3e
000001d0: 1d2a 443d b065 8f3b d03e 5ebc a7bd 3ebd
000001e0: 9fd1 343e 9c4e 103e ab46 cc3d 2861 783d
000001f0: 9292 dbbd d9a5 ac3c e0a7 0f3d 5935 d1bd
00000200: dfd5 6e3d e86d 643e 608e 85bc b4dc d7ba
00000210: ad52 49bc f0ca e83d 5fab 1bbd 7830 5ebe
00000220: 7793 cabc 9862 4e3e d72d 84be 31d4 0e3d
00000230: e110 633d d46d 5a3d 49d4 d9bd fa84 b4bd
00000240: 7444 a13d a0f9 02be f489 d73d 04e9 3b3e
00000250: d652 623d fba1 0d3e 07c4 a1bc 78bb 45bd
00000260: c59e 0bbe 22ec 3bbc 2eab 843e 574c c6bd
00000270: a0ab 80be 16a8 763d a259 4d3e ad88 ca3d
00000280: a2d4 733d 8d52 493e c9af 0f3d 3aea e9be
00000290: e171 ca3d a73f 49bd bae5 603d a3c2 9a3d
000002a0: 3a65 a8bd 1766 2b3e a866 c33c 035a c7bd
000002b0: 8ee9 17be b313 6e3e bf66 933e 098d b23d
000002c0: ae5c 9fbd d4c9 3bbe e9ec 783d 2e29 2ebd
000002d0: 0d04 743e ed87 283e 6a16 f4ba 1826 07be
000002e0: b0e0 bebd 82b9 f33c 40e0 f2bd d656 923c
000002f0: 4f8a 1e3e f65e 2d3e ec35 c13d 45ae af3d
00000300: d39c 3fbe d4b5 833c 9343 4b3d bca0 8e3d
00000310: 5506 2bbd 780f 5e3e 4700 f6bd 4880 7a3e
00000320: 1e10 11be dbb1 163e 8448 683e 1e42 16be
00000330: ae11 d4be eaa1 1cbe 73c4 a33c e502 c5be
00000340: ef09 c63d 1b4e 92be 019d 0f3e 1568 a9bd
00000350: 5916 513d f394 2f3e 12b8 4c3d 4fb7 093f
00000360: 5974 1dbe 37a0 9a3d 2a07 a4bd 8010 b3be
00000370: 50b9 813e 0fe4 8e3d 87f0 15be 1354 28be
00000380: 9e1e 08bd bd95 fdbc 19a7 333e b62f e7bd
00000390: 4bda 4bbe d7ba 24be ad20 2d3e 0df9 8cbe
000003a0: b9b0 80bd 8df8 80be 576b 853d 87f3 4bbe
000003b0: ac05 afbd b940 323e 57ff 0cbe 73ca fcbd
000003c0: df35 adbe 08d0 fcbd e0a9 2bbd 4678 48be
000003d0: 532f f7bd 14b6 6abe db3a 893e 3637 173d
000003e0: 6952 57bd 6022 ac3e 0d68 2f3e ba7c 533e
000003f0: afad edbc 18ec a13e 17f5 d8bc ed69 143e
-0.13167891 -0.05527187 0.23274677 -0.2165491 0.12817065 -0.04594717 0.22420491 0.15121321
-0.013577513 0.269778 0.029236356 0.00094257185 -0.07091565 -0.10015422 -0.015721671 -0.35845515
0.008960746 -0.33079886 -0.19992365 -0.03299961 -0.019750237 0.02448971 -0.08576961 -0.04817433
-0.099413864 0.19528203 0.08644594 -0.0229407 -0.20404784 0.018382601 -0.15167975 -0.08889477
-0.120194875 0.056545418 -0.032166492 0.133387 -0.046149112 -0.3864917 -0.28335103 0.1318118
0.0062996205 -0.30662164 0.063419156 0.14266187 0.1210478 0.12441103 0.0974323 0.39466602
0.18368068 0.16663073 0.2694351 0.03541158 -0.22195119 -0.07971184 0.0622917 0.08189238
0.13076222 -0.033745714 -0.04316169 -0.10151922 -0.09330602 -0.20933326 0.2731672 -0.2782871
0.09949418 0.07599784 0.04469082 0.07891158 -0.06275625 0.15930448 0.37336984 -0.08744423
0.08845141 -0.024267878 -0.13192756 0.29087603 -0.49384856 0.08561533 -0.33934388 -0.0071612285
0.17345811 0.2582152 0.12826735 0.1045912 0.1234566 -0.029266315 -0.053893663 0.08815291
0.0032030581 -0.12858145 -0.0776314 -0.08885922 -0.002641174 -0.0963158 -0.10016842 0.13551542
-0.0404314 0.03069479 -0.09221268 -0.060995746 0.15370508 0.1390994 -0.00832251 -0.082652055
-0.27029827 -0.09411389 -0.22562146 0.18123095 -0.332403 0.08825211 -0.033818338 -0.38578343
-0.3215741 0.033308323 0.18064839 0.24600466 0.047891725 0.0043761358 -0.01356478 -0.046567585
0.17658089 0.14092487 0.09974416 0.06063953 -0.107213154 0.021075176 0.035072207 -0.102152534
0.058309432 0.22307551 -0.016303241 -0.0016468973 -0.012287778 0.11366832 -0.03800523 -0.21698177
-0.02472852 0.20154798 -0.25816223 0.03487033 0.05543602 0.053327397 -0.10636193 -0.08814426
0.078743845 -0.12790537 0.10524359 0.18350607 0.05525478 0.13831322 -0.019746793 -0.048274487
-0.13634785 -0.011469873 0.2591185 -0.096825294 -0.2513094 0.060218893 0.20053723 0.0988935
0.059528954 0.19660397 0.03507975 -0.45686513 0.09885002 -0.04913297 0.054906584 0.07556655
-0.082224324 0.16738163 0.023852661 -0.09733965 -0.14835188 0.23249702 0.28789327 0.087183066
-0.07781349 -0.1833871 0.06077281 -0.04251974 0.2382967 0.16458102 -0.0018622403 -0.13198125
-0.093201995 0.029751543 -0.118591785 0.017863672 0.15482448 0.16930756 0.09434113 0.08578161
-0.18712167 0.016077913 0.04962499 0.069642514 -0.041754086 0.21685588 -0.12011772 0.24462998
-0.14166304 0.14716284 0.22683913 -0.14673659 -0.4141974 -0.1529614 0.019991135 -0.3847877
0.096698634 -0.28575215 0.14024736 -0.08271805 0.051046703 0.17146663 0.04998023 0.5379533
-0.15376414 0.0755009 -0.08009179 -0.34973526 0.25336695 0.069770925 -0.14642535 -0.16438322
-0.033232324 -0.03095519 0.17544211 -0.11288397 -0.19907491 -0.16086899 0.16906996 -0.2753376
-0.06283707 -0.2518963 0.06514614 -0.19917117 -0.08546004 0.17407502 -0.1376928 -0.123433016
-0.33830163 -0.12344366 -0.041910052 -0.1957713 -0.12069573 -0.2292102 0.26802716 0.036917888
-0.052568827 0.33619976 0.17129536 0.20653048 -0.029013483 0.31625438 -0.026484055 0.14493532

critic.0.bias f4 [64]
00000000: 57a6 9d3d b350 473c 746a bebd b127 31bd
00000010: f93a acbd fe92 9abd 190d b03d bda9 293d
00000020: 86a8 95bd d702 40bd 8a4b 87bd 58c9 713d
00000030: 8a8e ab3d 229e 8fbd a4e4 84bd a753 633d
00000040: 6ad9 363d d1fd 89bd 8e88 ba3d 57d1 86bd
00000050: 97ff 90bd 5d34 683d c791 6fbd 3b83 5ebd
00000060: b2fb 153d b30e 823d dcdd 91bd eb68 323d
00000070: f6d0 b73d d639 85bd a417 9c3d eb91 7cbd
00000080: b366 3cbd 66dd 66bd 3e9d 73bd a8a3 9e3d
00000090: ac54 8bbd ed21 86bd e4a6 953d 2426 81bd
000000a0: 4c70 99bd e5d4 4bbd 7512 483d bed6 d83c
000000b0: c067 77bd 8624 60bd 8a80 a53d 3039 6c3d
000000c0: b27b 6d3d 61c5 6b3d 8104 2b3d 1727 19bc
000000d0: ea38 2f3d bf16 81bd 42cf 763d 34cf 5c3d
000000e0: fd27 b63d b1c7 6abd bcdb 7c3d c092 9f3d
000000f0: 5894 b2bd 3352 813d 6bfb 7e3d 9f64 833d
0.076977424 0.012165236 -0.09297648 -0.043250743 -0.08409686 -0.07547568 0.08596248 0.04142164
-0.07307534 -0.04687771 -0.06606205 0.059029907 0.083767965 -0.07012583 -0.06488922 0.0554997
0.044640936 -0.06737865 0.09108077 -0.06582897 -0.0708 0.056690563 -0.058488633 -0.05432437
0.03661699 0.0635046 -0.071223944 0.04355709 0.08975403 -0.06505172 0.076216966 -0.061662596
-0.04599638 -0.056363486 -0.05947613 0.07746059 -0.06803259 -0.065494396 0.073072225 -0.06306103
-0.07492122 -0.04976358 0.048845727 0.026469585 -0.060401678 -0.05472233 0.080811575 0.057671726
0.057979293 0.057561282 0.041752342 -0.009347699 0.042778887 -0.063031666 0.06025625 0.05390854
0.08894346 -0.057319347 0.061732993 0.07791662 -0.087197006 0.063145064 0.06225149 0.06415676

critic.2.weight f4 [64, 64]
00000000: b356 263e 3be1 e7bc bf30 c53d 1402 8a3e
00000010: 244f a73d 005c f2bd f2c5 693c 19ce e9bd
00000020: d5b9 923d 7d9e 453d 98ed 1c3e c77a ccbd
00000030: f165 933e bf05 823d 18b1 fdbc dd12 3d3e
00000040: 659d 0cbe c359 d8bc 5ffe b43c f89e 853d
00000050: cd71 b03c 4fc1 b43d e765 77bd 74f0 9ebd
00000060: 461d 29be c088 1d3d 19f1 7b3e 130d a9be
00000070: 831c 18be 9d3f 963d 3d2e 8bbe f257 343d
00000080: a0ec 1abd 6ecc 7cbe 1e90 433e 6199 233b
00000090: 6f63 19bd 364b fe3d 2a50 56be 2e47 d23e
000000a0: daaa 25be 70c4 283e af45 4cbe caf2 253e
000000b0: dd56 683e 1dce 8bba d24a 8abe 2de9 04be
000000c0: 3337 c8bd 3bc3 923e 298f 8d3e d706 83bd
000000d0: 0b5c 413d 604a 96be 18e8 dfbe 6b97 a4be
000000e0: 4332 a33d d46f 5fbd 1e32 843c ac57 91bd
000000f0: 03cc 02be a73b 86be 0eb0 713e 792d 5dbe
00000100: 0cf6 f53e e888 363e fce8 0dbe 25d7 f23b
00000110: 0a1d 8fbe db32 4bbd 92e9 3c3e 5388 01be
00000120: dd51 103d 9769 a53d 0c0c 0fbd 557e 443d
00000130: 470b 7ebb 377e 97be 9dea 0bbe 1314 673c
00000140: eda6 ba3c 2ae1 563e 80a8 653e 830a 05be
00000150: 563f d4bc 1aac 1a3e 9035 be3e 8265 dd3d
00000160: 2c7a 103e 0559 79be c57d a8bd 884f 693d
00000170: f9e7 c53d 05f6 b6bd ca62 653e 519b 8f3e
00000180: de7b 83be db9c 41be fd57 6ebd eadc d5bc
00000190: 0e83 2a3e 49f4 9abe ddef 983e 79d4 03be
000001a0: 35a6 3d3d a845 8ebd f9ff a83e 5c00 91be
000001b0: efac 743e 4bd6 323d 7b98 c4bc ea06 8cbd
000001c0: 6612 353e da8e 2abd b46b b43d 6f0c 55be
000001d0: 0f91 353e 3be0 8fbd f05a f63c a8a3 fbbd
000001e0: 7bec ba3d 85f7 0a3e 19e3 bc3e 4acb 2c3e
000001f0: 9640 82be 14fd 853e bb7e 8c3e b430 9f3d
00000200: f5f8 59be 13a1 0ebe a648 71bd cf3c 703e
00000210: c65c a33e b098 c1bd 82cb 38be e92f f8bd
00000220: b7d7 773d fb7d 263d 0aec 8cbd e7c2 c6bd
00000230: 8014 763e 1ac9 d0bd 0ade 5fbe d521 76be
00000240: 134e a33d 7937 c93e f3a1 a8bd ba4b 7f3b
00000250: 9cc2 b73e 0fd4 8abe 930a 1abe b7a9 123e
00000260: 5853 833d 2a86 0cbd cc9b 2ebe 4f68 77bd
00000270: 2c86 a9bd 6592 763d 9e17 be3d 9dee 683e
00000280: 697c a03e a376 6dbd cbf2 e53d bdb4 b1be
00000290: 3cab 703e c587 203e 55cb a33d 5447 0bbe
000002a0: a76b bbbe 775a 81be bf7c 23be 4d3d 92bd
000002b0: 6df5 883e 5182 d2bc 4606 6cbb 7b12 1cbd
000002c0: 177c 36be 60b1 4bbe 4672 9dbb 8357 9dbe
000002d0: d71c 1abd f2b7 a0be 3ec0 4d3e fde2 143a
000002e0: 89f3 92be 8ce4 083d b2bd e0bd d450 37be
000002f0: 8919 b23d 55ed 5fbe a413 1bbc b2c1 a6bb
00000300: 83de 5e3e e892 d03d eb79 0ebd ac00 6e3d
00000310: 7072 9cbe d1c9 8fbd 6d12 ea3d e0d6 4b3e
00000320: 36af 9f3e c287 7e3e 2a5d b0bc 0ba4 89be
00000330: 22e8 b83d 721a 643e 753e a4bd 4ca2 1ebe
00000340: c018 8a3e 2acf 5dbd 3668 f23d c0bd 15bd
00000350: 201c 2f3d 91d4 6abe 51dd 003c 456d 19be
00000360: 443e e9bd 4d38 81bd 131b d63d db22 e53e
00000370: 98f3 483e 517d 183e 607b 223e b0ea b23c
00000380: a0a2 743d 129d 283e 319a f43e aff7 c03d
00000390: e336 81be c81e 853e 454c 3fbd f3b5 b13d
000003a0: 7062 4ebd 192b efbd 326b b63c 69e4 073e
000003b0: ea3d 233e bd60 133e 195c 6dbd 80b5 743e
000003c0: b8d3 4dbe aa00 1e3e 2347 d23c 7464 a43d
000003d0: e2c6 4ebe f53d ee3d 7943 293e cfed 283d
000003e0: 0f5e 7f3d a95d 22be 1710 dd3b 5cef 8a3c
000003f0: ceea a0be 0bae e7bd 2f49 e7bd d641 953e
0.1624401 -0.02830564 0.09628438 0.2695471 0.08169392 -0.11833954 0.014268385 -0.11416263
0.07164351 0.04824685 0.1532501 -0.099843554 0.28788713 0.06348752 -0.030968234 0.18464227
-0.13731916 -0.02640999 0.02209395 0.065244615 0.02153864 0.08825933 -0.060399916 -0.077607065
-0.16515073 0.038460493 0.2460369 -0.33017787 -0.14854626 0.07336352 -0.27183715 0.044029184
-0.03782332 -0.24687359 0.19097945 0.0024963247 -0.037448343 0.12416689 -0.20929018 0.4106993
-0.16178456 0.16481185 -0.19948457 0.16205898 0.22689386 -0.0010666285 -0.27010208 -0.12979575
-0.097761534 0.28664574 0.27648285 -0.06397789 0.04720692 -0.2935362 -0.4373176 -0.32146773
0.07968571 -0.054550007 0.016137179 -0.070968 -0.12773137 -0.26217386 0.23602316 -0.21599378
0.4803928 0.17825663 -0.13858408 0.007410901 -0.27951843 -0.049609046 0.18448475 -0.1264966
0.03523432 0.0807678 -0.0349236 0.047972042 -0.0038764046 -0.29588482 -0.13663717 0.014103907
0.022784675 0.20984331 0.22427559 -0.12992291 -0.025909107 0.15104714 0.3715024 0.10810377
0.14109105 -0.24350365 -0.08227114 0.056960613 0.09663386 -0.08933643 0.22400966 0.28048185
-0.2568044 -0.18907492 -0.05818938 -0.026106317 0.16651556 -0.302645 0.298705 -0.1287402
0.046301086 -0.069468796 0.33007792 -0.28320587 0.23894094 0.043661397 -0.02399849 -0.06837256
0.176828 -0.04164014 0.08809605 -0.20805524 0.17731117 -0.070251904 0.03007266 -0.12287074
0.09127136 0.13570984 0.36892012 0.16874424 -0.254399 0.26169646 0.27440438 0.07772961
-0.21286376 -0.13928632 -0.058907174 0.23460697 0.31906718 -0.09452951 -0.18046382 -0.12118513
0.060508456 0.040647488 -0.068809584 -0.097051434 0.24031258 -0.10194607 -0.21862045 -0.24036343
0.07973876 0.39300135 -0.08234014 0.0038955049 0.35890663 -0.27114913 -0.15043096 0.14322554
0.06412381 -0.034307636 -0.1705162 -0.06040221 -0.082775444 0.060198206 0.09281848 0.22747274
0.31344917 -0.05797447 0.1122795 -0.34708205 0.2350282 0.15676792 0.07997767 -0.13601428
-0.3660557 -0.25264332 -0.15965556 -0.071405984 0.26749745 -0.025696905 -0.0036014481 -0.03810356
-0.17820774 -0.19891882 -0.004804882 -0.3073083 -0.03762516 -0.3139034 0.20092866 0.0005679576
-0.28701428 0.033421084 -0.109736815 -0.17901927 0.08696277 -0.21867879 -0.009465132 -0.0050890082
0.21764569 0.1018427 -0.03478424 0.05810611 -0.3055606 -0.07020915 0.11429296 0.19906187
0.31188363 0.24856475 -0.0215288 -0.26882967 0.09028651 0.22275713 -0.08019725 -0.15491599
0.26972008 -0.054152645 0.11836283 -0.036557913 0.04275143 -0.2293265 0.007865266 -0.1498309
-0.11388829 -0.06309567 0.10454383 0.44753155 0.19624174 0.14891554 0.15867376 0.021840423
0.059725404 0.16466168 0.4777389 0.09422242 -0.25237188 0.26000047 -0.046703596 0.08677282
-0.050386846 -0.11678142 0.022267912 0.13270725 0.15941587 0.14392371 -0.05794916 0.23897362
-0.20100296 0.15429941 0.025668686 0.080269724 -0.20193055 0.11632911 0.16529645 0.041242417
0.06234556 -0.15856041 0.006746303 0.016959839 -0.31429142 -0.11312493 -0.112932555 0.2915179

critic.2.bias f4 [64]
00000000: 5edb 6fbd 6a34 733d d3f2 70bd 7e44 39bd
00000010: cab5 6abd 7659 62bd 6ceb 783d 22f7 46bd
00000020: 92dc 66bd d06e 77bd 2d3c 84bd 7d22 4ebd
00000030: 410f 74bd ce36 7bbd f9b2 6d3d a635 7cbd
00000040: 60a7 ab3d 1c80 79bd 01e4 743d 853c 5e3d
00000050: 83d3 583d 8c2e 6fbd eea3 59bd 7597 82bd
00000060: 06b3 723d eb39 8bbd 8e34 4bbd 20d6 8b3d
00000070: 4800 64bd 3795 92bd 3f47 61bd b4b1 a43d
00000080: 0f41 6dbd 19c0 693d e4bf 953d 494a 773d
00000090: aaf8 5e3d 7495 67bd fc93 823d 0990 813d
000000a0: 3489 70bd c69f 603d 068c 66bd b5a0 6bbd
000000b0: 2f60 3abd e40e 8ebd 8c51 3f3d 3b1d 46bd
000000c0: 0ec6 74bd 72df 6dbd 6b2b 5b3d fc2f 643d
000000d0: cfcc 85bd 7794 81bd 70b7 853d c8bf 8abd
000000e0: c21b 6dbd ba66 6c3d 5336 9ebd cfc8 8ebd
000000f0: 68e0 99bd 88a7 673d 3e8d 6bbd a376 85bd
-0.058558814 0.059376158 -0.058825325 -0.045231335 -0.057302274 -0.055261098 0.06077139 -0.048575528
-0.056362696 -0.060408413 -0.0645679 -0.05032586 -0.05958486 -0.061331563 0.05803201 -0.0615746
0.083815336 -0.06091319 0.059787754 0.054256935 0.05293609 -0.058394 -0.05313485 -0.063765444
0.05925276 -0.06798156 -0.049610667 0.068279505 -0.05566433 -0.07157367 -0.054999586 0.08041707
-0.057923373 0.057067964 0.07311991 0.06037358 0.054436363 -0.056539014 0.06375882 0.06326301
-0.058724597 0.05483987 -0.05628588 -0.05752631 -0.045501884 -0.06936434 0.04670863 -0.04836772
-0.059759192 -0.058074422 0.053508203 0.055709824 -0.06533205 -0.063271455 0.065291286 -0.067748606
-0.0578878 0.057715155 -0.07725205 -0.06971895 -0.07513505 0.056556255 -0.057507746 -0.06516769

critic.4.weight f4 [1, 64]
00000000: 5f29 c0bd 909b 673e 9b33 65be 2612 02be
00000010: f63b c2bd 2c11 3abe e038 963d 732b 31bd
00000020: 0f59 08be aca9 2cbe 905c 3ebd 56e0 93bd
00000030: f353 3fbd 9f00 2ebe 2a79 673e cdc7 fcbd
00000040: 5ce4 fb3c cef5 a5bd 182e 063e 0723 983e
00000050: 5ec2 7a3e 3301 fabd ccf8 0cbe 08be c5bd
00000060: 0571 eb3d 85aa b4bd 470a 8bbe cee2 3d3d
00000070: bcb6 90be bf98 a5bd e707 8fbe 36b9 643d
00000080: b1a1 76be e7dd 443e 08fb 513d d57a bc3d
00000090: f098 b33d 63b2 91be 71bf 913d 2aa9 113e
000000a0: deb9 9bbe 9fe7 893d 2bb7 54be bde9 16be
000000b0: 758b 0bbd 9f55 ccbd 8ec0 e03d 835d b9bd
000000c0: acf5 03be c73e aabe a7ab 9d3d 705a b53d
000000d0: edbf 76bd 98ef 6ebd 0898 a13d 1eb4 10bd
000000e0: 5fa5 91be 4ba1 663e 8bb8 a0bd c978 3bbd
000000f0: afcf 96bd 2beb bc3d 96d2 a1be b6fa 9ebd
-0.09382891 0.22617936 -0.22382967 -0.12702236 -0.09484093 -0.18170613 0.07335067 -0.043254327
-0.13315223 -0.168616 -0.046474993 -0.07220523 -0.04671092 -0.16992424 0.22604814 -0.123427965
0.030748539 -0.08103524 0.13103521 0.29714224 0.24488208 -0.1220726 -0.13766783 -0.09655386
0.11496166 -0.088215865 -0.27156278 0.046358876 -0.28264415 -0.08085775 -0.27935717 0.055840693
-0.24085118 0.19225274 0.051264793 0.09203116 0.08769405 -0.2845641 0.07116593 0.14224687
-0.30415243 0.06733631 -0.20772998 -0.14737602 -0.034068543 -0.099772684 0.10974227 -0.09051039
-0.12886685 -0.3325102 0.07698756 0.0885514 -0.06024163 -0.058333963 0.07890326 -0.035328023
-0.2844648 0.22522466 -0.07847699 -0.045769487 -0.07363831 0.09224542 -0.31605977 -0.07762663

actor.0.weight f4 [64, 5]
00000000: dd17 76bc ea93 06bf 6f12 3b3e 72f8 2c3d
00000010: e27b 22be 238f 69be 016b 2dbe 1958 cc3d
00000020: fd6a 193e 3a82 e23c 2cbe f73d ae8e 523e
00000030: 4900 143d b81d b4be 9be2 31be f342 8c3e
00000040: 1f49 aabe f304 0bbe 43fe cc3d 7c89 12bd
00000050: 0df6 63bd 4c82 c13e fd5a 643e 964e 9cbe
00000060: 90c8 68bd 9253 60be c1dd 9a3e b26d 23be
00000070: 6fec b53b ffaf df3d 3daf 19be 7041 1b3e
00000080: 1560 4b3d dd9c 023e 7adf d1bd f887 7dbe
00000090: 7ae9 833e f93f 883c 6204 85be 6105 9c3e
000000a0: 133e d8bb 497e 9fbe 3e69 b93d 5636 31be
000000b0: fcae 46bd 9fa9 8ebb f88d babe e458 183e
000000c0: d2db b63b 31ce 233d 5cf4 2f3e 8b69 373e
000000d0: b088 17bc d37c 44be af20 693e 8091 a53c
000000e0: eb28 eabd f81c bb3e 52b5 e8bd 3e4e 213f
000000f0: 65ce 37be c9bd b2be bb76 33be 8452 71bd
00000100: 9a4b 423d 21dc fd3d 473e a1be bdcb f3be
00000110: ea37 a8bd 58cd df3d e00a 2d3e f411 6abe
00000120: 4e14 4ebe 57fd a7bd 4fb5 aebd ec38 1bbe
00000130: 56f6 fdbd 671f 78be 135e 9c3c a386 393e
00000140: 66cc 69be 15c5 8b3e 122d 753d c6c0 50bd
00000150: 4be2 b73d 7f6d 4e3d 1f52 203e b44f cabd
00000160: 6768 88be b14a d03e 270a a53d 4dd3 61bd
00000170: 318e 70be 6122 0ebe f84d 8bbe b4ea 64be
00000180: 5912 823e 72f8 153e 7591 cabe 5bbd 9d3d
00000190: 2fd0 4b3e 5d1f 163e b547 313d aa91 98bc
000001a0: eb54 39bd 5f99 8bbe df98 08bd 1260 8dbe
000001b0: 3b30 4e3e 87e2 7a3b b4fb 573e 7f63 42bc
000001c0: 5e43 9e3e 5275 2fbd 23ff 863e ffb2 813e
000001d0: f886 46be e771 3ebe 886c b3be 13cb 10bd
000001e0: e34f 773d dcf9 06be 8617 fabc 7656 d5bd
000001f0: 2bf4 363e cd66 303e 9a33 773e 9921 283e
00000200: c9e7 c4bd d0ba 573e 36dd 4dbe caf7 2bbe
00000210: 1f42 cc3d 1a71 f1bc 5420 b2be e93e 54bc
00000220: a3ac 013d ee8b d7bd aa95 d2bb fdf5 54be
00000230: dc91 6dbd 2b73 3ebe 61d7 88bb 44e6 4abe
00000240: 0ad4 96be bd08 8bbd a2ae afbd 0911 263e
00000250: 9f68 ec3d 6169 64be d925 2c3e d5dd bfbe
00000260: d737 58be 3bcc 983e a940 00bd 3648 643e
00000270: ccc4 1e3e 4618 16be f469 63bd da99 773d
00000280: 4e94 1ebd 4997 203e ad46 71be 258d 2cbb
00000290: ed2f 413e 9025 13be 0216 6b3e f1b7 d63d
000002a0: b656 e4be d534 043e c238 d03d 011c 4dbe
000002b0: 245e e8bd 6a4f 233c 736d 543c fe90 9fbd
000002c0: 90da f8be d8db b0be 2cc8 31bd bc6c 003e
000002d0: 73ef 963e 5a92 6f3d 0b16 533d 5e51 4dbd
000002e0: b948 ac3d 80b2 6f3b 6d84 ca3d 18e1 ae3c
000002f0: 0ab6 3d3a cd03 643e 5dd5 553d 113a 9c3e
00000300: d0c6 d23d 9b29 33bd 615b 88bd 99cf f13c
00000310: a685 33be da7d 11bd c5a7 a7be 9e72 8dbe
00000320: 9ff2 e0ba da96 9d3e 63bd 80bd 79f8 e7bd
00000330: 7b28 08be af1f 93be 796e 013e 366c e33d
00000340: b8b4 5abe 3048 b13c 22c8 763e 2ee1 89be
00000350: e26c 5bbe 9f90 99bd 8eb5 d43d 708e c73c
00000360: d7b8 843e f7c4 c9be e074 7ebd 5462 b2bd
00000370: 9c2f eabd 2fec 573d f06c 653d 05fd 39bd
00000380: 0b1f 323e 9cac e43d 9192 7c3e a1d5 d3bd
00000390: 9a8f 2d3e a6d3 803e 32d6 51be dbc9 03bf
000003a0: 0ce3 8d3d 0f10 633d 9fc4 843d 8e63 d9bd
000003b0: 9601 6ebe 2021 09be ccc2 133c ec25 73bc
000003c0: af84 8abe d9d4 c9be 2672 b13c 52c6 7d3d
000003d0: d49e 883d b2be c2be 1bcb 87be 26be c43d
000003e0: 7e33 293e 2c27 803c 629a 5ebd dd55 86be
000003f0: dd4e 90bc 66a5 a83e c501 8dbe aefa 14bd
-0.015020338 -0.5256945 0.1826875 0.042229123 -0.1586757 -0.22808509 -0.1693535 0.09977741
0.14982219 0.027649987 0.12096819 0.2056224 0.036133084 -0.35178924 -0.173716 0.27394828
-0.33258912 -0.13576107 0.10009434 -0.035775647 -0.055654574 0.3779472 0.22300334 -0.30528706
-0.056831896 -0.2190688 0.3024731 -0.15959814 0.0055518667 0.109222405 -0.15008254 0.15161681
0.049652178 0.12755151 -0.10247703 -0.24758899 0.25764066 0.016632067 -0.25979906 0.30472854
-0.0065991967 -0.31151035 0.090532765 -0.17305884 -0.04850672 -0.0043537165 -0.3643644 0.14877659
0.005580404 0.03999156 0.1718306 0.17911355 -0.009248897 -0.19188242 0.22766374 0.020210981
-0.11433586 0.3654554 -0.11362709 0.63010013 -0.17949827 -0.3491042 -0.17525761 -0.058916584
0.04743538 0.12395502 -0.31492826 -0.47616377 -0.0821379 0.10927838 0.1689868 -0.22858411
-0.20124933 -0.082026176 -0.085306756 -0.15158433 -0.124005005 -0.24230729 0.019087827 0.18117766
-0.22831878 0.272988 0.059857436 -0.050965093 0.08978709 0.050397392 0.15656327 -0.098784834
-0.26642153 0.40681985 0.08058577 -0.055133153 -0.23491742 -0.13880302 -0.27207923 -0.22355157
0.25404623 0.14645556 -0.395641 0.07702132 0.19903634 0.14660402 0.043281276 -0.018624146
-0.045247 -0.2726545 -0.033348914 -0.27612358 0.20135586 0.0038281993 0.21092111 -0.011864542
0.30910772 -0.042836495 0.2636653 0.25331876 -0.19387424 -0.18598138 -0.3504374 -0.035349917
0.06037892 -0.13181251 -0.030528795 -0.10416882 0.1786658 0.17226715 0.24140778 0.16419066
-0.09614522 0.21067357 -0.20103917 -0.16793743 0.09973549 -0.029472876 -0.3479029 -0.012954452
0.03165878 -0.10524736 -0.0064265328 -0.20796962 -0.05800043 -0.1859862 -0.004176066 -0.19814402
-0.29458648 -0.06788776 -0.085782304 0.16217436 0.115433924 -0.22305824 0.16811313 -0.37473932
-0.21115051 0.29843315 -0.031311665 0.22293171 0.1550476 -0.14657697 -0.055520967 0.06044946
-0.038715653 0.1568271 -0.23562117 -0.0026329246 0.18865938 -0.14369798 0.22957614 0.10484303
-0.44597405 0.12910779 0.10167076 -0.20030214 -0.11346081 0.009967664 0.012965548 -0.07791327
-0.4860425 -0.34542727 -0.04340379 0.12541479 0.2947956 0.05848918 0.051534694 -0.050126426
0.08412308 0.00365749 0.098885395 0.021347567 0.0007236904 0.22267075 0.052205432 0.3051305
0.10291827 -0.04374085 -0.06658054 0.029517936 -0.17531452 -0.035520412 -0.32745185 -0.27626508
-0.001716215 0.30779153 -0.06286123 -0.11326689 -0.13296692 -0.2873511 0.12639798 0.11104624
-0.21358001 0.021640867 0.24099782 -0.2692961 -0.21428254 -0.074982874 0.10386191 0.024359912
0.25922272 -0.39408085 -0.06212318 -0.08710161 -0.11434862 0.052715477 0.056012094 -0.045407314
0.17394654 0.11165735 0.24665286 -0.10343481 0.16949311 0.25161475 -0.20491865 -0.5147988
0.069280714 0.055435237 0.06482815 -0.10614692 -0.23242792 -0.13391542 0.009018611 -0.014840584
-0.27054355 -0.39420202 0.021660876 0.06195671 0.06670919 -0.38036114 -0.26522145 0.096065804
0.16523549 0.015643679 -0.05434645 -0.26237383 -0.01761573 0.3293869 -0.27540413 -0.03637188

actor.0.bias f4 [64]
00000000: 8166 673c 7dd2 dd3c fd70 f7bc 1572 563c
00000010: 6d9b 81bc f6d0 d3bc bb75 b6bc b199 4cbc
00000020: 67c0 d03c 6779 e63c cc4b 40bc 805a 17bc
00000030: 9dc4 6a3c 60e2 853a 4f7b aa3c 27e0 e53c
00000040: d0f1 91bc e2ef 71bc 7364 3bbc d452 9ebc
00000050: e64c 94bc 3ae9 c53c 261b f5ba 7740 52bc
00000060: fe0e 27bc 1e16 6fbc f555 a53c 031e c8bc
00000070: c28a 503c cd48 693c 83c9 c73c e234 58bc
00000080: 2901 79bc 35f9 3bbc 3faa 9e3c 8706 9d3c
00000090: f0f0 97bc 3c20 b0bc 40d5 61bc 3266 22bc
000000a0: e080 16bd 237a fbbb 6a55 713c 05eb 03bd
000000b0: 0811 dd3c 0d28 bcbc 4f00 b33c fca9 8f3c
000000c0: cbc8 b43c 2352 b83c 6621 1f3c 2ee1 9a39
000000d0: e71e 483c 93bf e03c f58a cc3c 0632 4a3c
000000e0: 86e1 4ebc c145 653c a4a2 eabc 401b 3c3c
000000f0: 227a febc c8b2 afbc 6e8f 0e3c 6e04 1a3c
0.01412356 0.027077908 -0.030205244 0.013088723 -0.015821183 -0.025856476 -0.022272935 -0.012487815
0.02548237 0.028134061 -0.011736821 -0.0092378855 0.014329103 0.001021456 0.020810751 0.028060986
-0.0178155 -0.014766665 -0.011437523 -0.019326605 -0.018103074 0.024159063 -0.0018700107 -0.012832752
-0.0101964455 -0.0145926755 0.02018259 -0.024428373 0.012728395 0.014238548 0.02438808 -0.013196202
-0.0151980305 -0.01147299 0.019368289 0.019168152 -0.018547505 -0.021499746 -0.013783753 -0.009912061
-0.036744 -0.007674472 0.014729837 -0.032206554 0.02698566 -0.022968316 0.021850733 0.01753711
0.022068402 0.022500103 0.009712553 0.0002954094 0.012214399 0.0274351 0.024968604 0.012341028
-0.012627011 0.013993681 -0.028642006 0.011481106 -0.031064097 -0.021447554 0.0087011885 0.00940047

actor.2.weight f4 [64, 64]
00000000: 5f65 8fbc 7f20 473d d850 bdbe f0e4 533e
00000010: 7b49 64be 721c 60be e6e3 e03e ce3e 45be
00000020: f6e6 80bb 7169 a6bd 8008 693d cf42 353e
00000030: 04f5 3a3c 993d 8cbd 03b6 283e 01e6 c9bd
00000040: ceff bcbd 8543 2cbe bf68 033f 103a 2abe
00000050: 0964 423e 47df 3a3e 9895 a13e da3a 90be
00000060: 6a25 5d3c 5ce3 0fbe da85 82bc a55b 273d
00000070: df26 4bbd 5738 0a3e 7d0a 013e 2dfd 96bd
00000080: b25a 643c d92b c8bd 3395 433e 0418 6f3d
00000090: d7fc 38be e724 c73d 359d 97be b927 223e
000000a0: 01af 67be 5947 28bc c66b 7b3c b60b 533e
000000b0: 2f10 c9bd 3595 553e f25a 6d3e ef1e a53e
000000c0: f5b0 903e 01a0 d3bd 6550 643e dc10 b8bd
000000d0: 3f70 f03d 887c 303e 34f0 ddbd c7ca 923d
000000e0: 26b0 12bd bd00 bebd a3a6 cebd 873e 99be
000000f0: 5a12 ef3d b893 e8bd 71cd 983e b240 a6be
00000100: 0557 25bb ebc1 723e ff92 f3bc 0a70 9ebe
00000110: bb43 fabd 8bd0 9cbe 7139 49be 376e 53bd
00000120: d1f6 f9bd 9fd7 b73d 0525 5bbe a713 cd3c
00000130: a04f b23e 93dc 523d fbd6 593e 68e9 efbd
00000140: 6d36 3e3e 3750 e6bd 4a7e 173e 8eec 873e
00000150: e84b b83d b8a3 7c3d 6ae8 d0be 4334 d4bd
00000160: 2418 d1bc 25a7 1bbe 769e f7ba 8145 183e
00000170: d70f 1bbe 8783 813d d4f5 d33d 0e3c 2d3e
00000180: 4237 7abe e879 87bd a1d4 9b3d 8d0b abbe
00000190: fa45 3fbe 3405 e43c 4110 04be d669 893d
000001a0: 6683 363e 5ae8 223e 1c47 a2bd 6331 f93b
000001b0: 883f 9ebe 91b0 e0bc 578e a33e 8f31 4d3d
000001c0: 7be7 d53d 2df1 893e 7224 393e 98ff 803e
000001d0: 3d09 f53d 41f1 36be 12ba 70be db30 cc3c
000001e0: a36c cabe d27d 8c3e 3181 65be 89cb 553e
000001f0: ffea d73c bb2f 82bd 5fcc de3d c6a1 8d3d
00000200: 65ed 2b3d 4a7b 06be 8c52 46bd ae01 383e
00000210: 7f4d 7b3e 1efd 78be 97b6 54bd 2481 073e
00000220: aaad 02be 7e37 d43d ae5a 07be 1231 09be
00000230: 00b6 e4bd 486d c83d b36e f1bd f80d 51be
00000240: 48ef cf3d 99c2 643e 403f 323e 7df9 a23d
00000250: e74c b63d f2b4 a1be d09c 24be 0138 573c
00000260: 1073 273e 64e2 74be 9856 b7bd b57c 433e
00000270: bd0c 5ebd aca8 223e 368f 09be 5ca1 62be
00000280: 5986 8abe 9b28 a43e e199 24bd 4f8b cfbd
00000290: 87ec 113c ddad 9c3d 18ea 8f3e bd8d 0c3e
000002a0: 35ec 83bd 31b6 6bbd f0b3 55bd 9347 883e
000002b0: f9e9 033e 5619 94be e258 2fbe 9348 333e
000002c0: f9f8 28be 8625 403e 20e5 46be 29dd 9f3c
000002d0: 1145 20be bd3e 15be d9d3 c73d 35dc 0a3d
000002e0: b10b a2bd d0cd 77be f8dd d2bc 6b5a 02be
000002f0: f65b 923d 29e5 03be 042f cebe dcf1 07bf
00000300: e805 d4bd 4775 16bb f23a c63e dcaf 7cbe
00000310: f7db 343e d849 24be 8ced eb3d d593 95be
00000320: 601d 8bbd 5b08 a23d 09c6 7cbe 55ff 903c
00000330: 0e60 af3d 29ae cd3d fa75 febd 51cd 45be
00000340: 2733 2ebe da85 80be 5e9f f8bd 67d7 8cbd
00000350: af85 a5bb 90be 64bc c4b5 9e3e 98b2 4d3d
00000360: 39f8 3ebc 076a 063e 84ac 2cbe 1008 91bd
00000370: 3390 ec3d 6363 873d 542a 113b 9675 86be
00000380: d425 863e 33ea a3be 7178 c43c 9e8c 16be
00000390: a3d9 09be b859 6bbe 34d8 a9bb 16e3 f33d
000003a0: 6507 e0bd 4103 18be 9ae4 353e 50d2 6ebe
000003b0: 6255 66bb 46ba ad3d 54ea 753d aba9 49be
000003c0: 395f 8a3d ba7d b53e c54e 72be 41b8 c7bc
000003d0: d859 293e b6e6 1abe bf0e ec3d dab8 59be
000003e0: 734c ad3c d536 ebbd 7a47 fbbe 0bfc 1cbe
000003f0: 5ec5 8d3e b3e1 d4bd 53d5 0cbe 9421 bdbd
-0.017504392 0.048614975 -0.3697574 0.20692801 -0.22293656 -0.21885851 0.43923873 -0.1926224
-0.0039337827 -0.0812558 0.05689287 0.17701267 0.011410955 -0.06847686 0.16475682 -0.09858323
-0.09228478 -0.16822632 0.51331705 -0.16623712 0.18983473 0.18249236 0.31559443 -0.281699
0.01349769 -0.14051574 -0.015932966 0.040858883 -0.049597617 0.13498054 0.12601657 -0.07372508
0.013937639 -0.09773988 0.19099884 0.058372512 -0.18065201 0.097238354 -0.29612127 0.15835465
-0.22625352 -0.010270917 0.015345519 0.20609936 -0.0981754 0.20857699 0.23179224 0.32250163
0.28260008 -0.10333253 0.22296293 -0.08987591 0.11740159 0.17235005 -0.10836831 0.07167583
-0.03581252 -0.092774846 -0.10090377 -0.29930517 0.11673422 -0.113563 0.2984424 -0.32471234
-0.002522887 0.23706786 -0.02973318 -0.30944854 -0.1221995 -0.30627856 -0.19650818 -0.05161878
-0.122052796 0.08976673 -0.2140084 0.025033785 0.34826374 0.051479887 0.21273415 -0.117144406
0.1857545 -0.112457685 0.14794269 0.26547664 0.08998853 0.061679572 -0.40802318 -0.10361531
-0.025524206 -0.1520048 -0.001889183 0.14870264 -0.15142761 0.06323915 0.10349622 0.1691744
-0.24435142 -0.06615049 0.07608915 -0.3340725 -0.18679038 0.027834512 -0.12896825 0.0670964
0.17823562 0.15908948 -0.07923719 0.0076047643 -0.30907845 -0.027427943 0.31944534 0.05009609
0.10444542 0.26941815 0.18080309 0.25195003 0.11964653 -0.17865469 -0.2350848 0.02492564
-0.39536008 0.27439743 -0.22412564 0.20878424 0.026357172 -0.0635676 0.108788244 0.069156215
0.041974444 -0.13132969 -0.048418567 0.17969391 0.24541281 -0.24315307 -0.051931944 0.13232857
-0.1276156 0.10362147 -0.13218185 -0.13397625 -0.11167526 0.09786469 -0.11788692 -0.20415485
0.10153061 0.22339858 0.1740694 0.07957742 0.08901387 -0.31583363 -0.16075444 0.013135911
0.16352487 -0.23914486 -0.08952063 0.1909054 -0.054211367 0.15884656 -0.13433537 -0.22131866
-0.27055624 0.3206223 -0.040185813 -0.10133993 0.00890649 0.07650349 0.28108287 0.13725944
-0.06441537 -0.0575468 -0.052173555 0.26617107 0.12882222 -0.2892558 -0.1712375 0.17508154
-0.16501226 0.18764314 -0.19423342 0.019514637 -0.15651347 -0.14574714 0.097572036 0.033901412
-0.07912386 -0.24199605 -0.025740609 -0.12729804 0.071464464 -0.12880386 -0.40270245 -0.53103423
-0.10352689 -0.0022958086 0.38716847 -0.2467646 0.17662035 -0.16043794 0.11519918 -0.2921435
-0.06792712 0.0791175 -0.2468492 0.017699877 0.08563243 0.10042984 -0.12424846 -0.19316603
-0.170117 -0.2510212 -0.12139772 -0.06877022 -0.0050513367 -0.013961449 0.3099805 0.05021915
-0.011655861 0.13126384 -0.16862684 -0.07081616 0.11550941 0.066107534 0.0022150474 -0.26261586
0.26200736 -0.32014617 0.023983212 -0.14702079 -0.13461928 -0.22983444 -0.005183244 0.119085476
-0.109389104 -0.14844991 0.17762986 -0.23322415 -0.0035146107 0.084827945 0.060037926 -0.1969363
0.067564435 0.35447484 -0.2366286 -0.024379851 0.16538179 -0.15127072 0.1152625 -0.21261922
0.021154618 -0.11485068 -0.4907797 -0.15330522 0.27689642 -0.10394611 -0.13753252 -0.0923492

actor.2.bias f4 [64]
00000000: f708 133c 38d4 663c 5167 22bd d9be 503c
00000010: c090 5abc b99a 863c 03ac f13c 7633 a83c
00000020: 369a 06bb a956 b9bc d439 5b3c 2649 7abb
00000030: 3da6 6bbc 2df5 493c 0f2c 173c fd54 cebb
00000040: 94db e1bc 9ecd cd3c c775 a4bc 186c fe3c
00000050: 48ee 9bbb 8dfe 42bc 8564 f9bb e554 913c
00000060: 4f19 963b 6507 9b3c 31c1 0dbd bf02 4a3c
00000070: 91f6 463c e88d afbc 87ff 0a3c 95a1 4abc
00000080: 0a79 44bc 8c20 e7bc b219 8d3b fcb0 773c
00000090: 7781 93bc f7f2 30bc e6e4 af3c a403 42bc
000000a0: 4205 cc3c a684 68bc 9aa5 923c fdb8 833c
000000b0: bd90 833c 0627 7a3c 0556 8b3c f792 00bc
000000c0: c4f9 f9bc 99aa 163c d4de 3fbc 7722 d4bc
000000d0: b1d0 a6bc f9ea b93c e7ce 8abc eeb6 18bd
000000e0: d8a4 2dbc 4bb1 06bd 9b76 f73b 3133 70bc
000000f0: 2226 673c 5735 843c f39b 253c f303 bdbc
0.008974305 0.014088683 -0.03964931 0.012740814 -0.013340175 0.0164312 0.029500967 0.020532351
-0.0020538694 -0.02262433 0.0133804865 -0.0038190573 -0.014382896 0.012326521 0.009226813 -0.0062967525
-0.027570523 0.02512246 -0.020075692 0.031057402 -0.00475863 -0.01190151 -0.00761086 0.017740676
0.0045806537 0.018924424 -0.03460807 0.012329756 0.012143747 -0.02142997 0.008483774 -0.012367626
-0.011991749 -0.028213762 0.0043060416 0.01511788 -0.01800607 -0.010800115 0.021471452 -0.011841688
0.02490485 -0.014191782 0.01790123 0.01607942 0.016060228 0.015268093 0.01700879 -0.007847539
-0.030514605 0.009195947 -0.011710841 -0.02589534 -0.020363184 0.022695052 -0.016944362 -0.03728383
-0.010598384 -0.032883924 0.0075519807 -0.0146606425 0.014108213 0.016138716 0.010107982 -0.023073172

actor.4.weight f4 [3, 64]
00000000: 0eed 02bd a319 23bd cb79 6c3c 94df 083b
00000010: f5a4 ad3c ccd2 66bd f07c ffbc fdbc 61bd
00000020: c922 a33c 087b 983c 45e2 58bd ae36 cbbc
00000030: 9f8c e93c f97f f0bc 9a6f 0cbd 82cf f43c
00000040: fe97 3b3d 6c09 42bd 8f5c 273d 8364 41bd
00000050: 8228 babc 715a 003d 37dd 583c 07f0 4fbd
00000060: 0bd7 9e3c 3cb4 19bd 4132 573c 68f3 f9bc
00000070: d904 99bc 189d f63c d96e d7bc 9dce 64bb
00000080: 8efb 5a3d 6e3b 433d e0d7 123c 33d7 9bbc
00000090: 9b6f 423c 4057 3a3d 1de8 5dbd 45a9 243d
000000a0: 6663 78b9 06bd 333d f2d2 d7bb bf43 2dbd
000000b0: 4dfc 59bd b12a 4cbd 3436 2cbd 1a67 6a3c
000000c0: c014 113d d443 31bd b14f 003d 7db6 773d
000000d0: 09ce 863d a320 6ebd 1dd4 683d bc15 173c
000000e0: 2883 0a3d 30c8 e43b bcb4 0ebd 6c6d 2cbc
000000f0: 72d2 21bc 10f0 cabc da51 16bd 3eb7 3a3d
00000100: dbfe 00bd d9c3 a13b 35ae c83a 4b4a 78bc
00000110: cb96 bdba abe7 1ebc 29e2 22bc fcb4 b2bc
00000120: 8b52 3f3b 952f 3b3c 1ff6 adbc f393 f1bc
00000130: 3ebd b03c 26b6 bfbc a500 bebb a27e 983c
00000140: 00ac c23c 25d5 47bb 8edd 013d 5d53 b53b
00000150: 453a 86bc 91f0 3b3b 59be ce3b eeaa a9bb
00000160: a15a 8b3c 17b3 8abb cf14 bcbc 7469 80bc
00000170: b7e7 cfbc 3ff9 9dbb bebd 61bc ea39 a2bc
00000180: 13d5 e93c b44d 3bba 4d07 f33c a25d bcbc
00000190: 6fb6 3b3b f16a c83c 3244 aebc 0a24 7b3c
000001a0: 82af 123c 10c3 e93b a5be 76bc af25 8dbc
000001b0: ffcb febb b975 2dbc f40c 28bb d938 ea3c
000001c0: d3d3 2c3b b451 6bbc b10d ca3c 7cd1 873a
000001d0: 5518 a13c c1b5 87bc c255 cd3c e357 4ebc
000001e0: aa60 533c 33ad 94bb 31c7 09bc 14b1 e6bb
000001f0: c832 bfbc b1fc 12bc 70d7 0fbc 0477 733b
00000200: a3ca 893d 5bfe 1c3d 29b1 97bc 9363 3e3c
00000210: 400b 7dbc b019 833d 51cb 463d b99b 9e3d
00000220: 4b2f e7bc 936e 0cbd 7546 9e3d fa8c 753d
00000230: 9f52 66bd 0558 7b3d d4f2 2a3d 90d3 40bd
00000240: 55f1 8fbd 8bde 3a3d fd6b 9fbd 3982 3f3d
00000250: f632 363d 1e04 32bd 10f1 aabc f8fa 5c3d
00000260: 94ae 2abd c392 4c3d b7d2 b03b 50e7 5d3d
00000270: f863 543d 904e e2bc 4fbd 3e3d d701 ca3c
00000280: b7e3 b6bd 8859 57bd f2d0 30bd 4eb8 4b3d
00000290: 692e 91bc cdde 92bd 8bd7 9a3d 9be3 81bd
000002a0: 170f 4cbc c58c 4ebd 0ac6 b33c 2c0a 8b3d
000002b0: dc75 813d b845 823d 12d9 463d 5063 37bd
000002c0: 00fd 2dbd a472 7b3d 20cf 73bd e8c9 8abd
000002d0: 5b6d b5bd 0af5 973d ce81 a9bd 7c15 163b
000002e0: c75f 77bd 6421 cd3a 8ee5 3c3d 6f48 863c
000002f0: a1b6 203d 36e5 333d 588c 3f3d 0e7b 5ebd
-0.031964354 -0.03981937 0.014433335 0.0020885216 0.021196822 -0.056353375 -0.031187505 -0.055111874
0.019914048 0.018613353 -0.052950162 -0.024806347 0.028509436 -0.029357897 -0.03428612 0.029884104
0.045799248 -0.047372267 0.040859755 -0.047214996 -0.022724394 0.03133625 0.0132363355 -0.050766017
0.01938965 -0.0375254 0.01313454 -0.030511573 -0.01867907 0.030104205 -0.026297973 -0.003491319
0.053462557 0.0476641 0.008962601 -0.019023513 0.011867429 0.045493364 -0.05417644 0.04020049
-0.00023688152 0.04388144 -0.006586426 -0.042300936 -0.05321913 -0.0498454 -0.04204388 0.014306808
0.03542018 -0.043277577 0.031326 0.06047677 0.06582267 -0.058136594 0.056842912 0.0092214905
0.033816487 0.006981872 -0.03484033 -0.010524135 -0.009876834 -0.024772674 -0.036699153 0.04558491
-0.03149305 0.004936677 0.0015310707 -0.015154432 -0.0014464495 -0.009698789 -0.009941616 -0.021814816
0.0029193487 0.011424919 -0.021235524 -0.029489493 0.021574613 -0.023402285 -0.0057984167 0.01861507
0.023763657 -0.0030492034 0.03170543 0.0055336193 -0.016385207 0.0028677324 0.0063093123 -0.005177847
0.017010989 -0.004232775 -0.022959141 -0.015675284 -0.025379045 -0.004820972 -0.013778148 -0.019803006
0.028543985 -0.00071450626 0.029666567 -0.022993866 0.0028642674 0.024465056 -0.021272752 0.015328417
0.008952977 0.007133849 -0.015060102 -0.017229883 -0.007775783 -0.010587149 -0.0025642486 0.02859156
0.0026371374 -0.014362741 0.024664732 0.0010362114 0.019664923 -0.01656616 0.025065307 -0.012594196
0.0129014645 -0.0045372485 -0.008409307 -0.0070401523 -0.023339644 -0.008971379 -0.008779392 0.0037149796
0.06728103 0.03832851 -0.018517094 0.01162042 -0.015444577 0.06401384 0.04853374 0.077445455
-0.028220793 -0.03428514 0.07728282 0.0599489 -0.056231137 0.06136324 0.041735485 -0.04707676
-0.07028452 0.04562239 -0.07784269 0.04675505 0.044482194 -0.043460958 -0.0208669 0.05395028
-0.041670397 0.04994465 0.005396213 0.054175675 0.05185315 -0.027625352 0.046567257 0.02465908
-0.08930152 -0.052575618 -0.043168016 0.049736314 -0.017722325 -0.07171402 0.07560643 -0.063422404
-0.01245477 -0.050427217 0.021945018 0.067890495 0.06321308 0.06360954 0.048546858 -0.044772446
-0.042477608 0.061388627 -0.0595237 -0.06776792 -0.088587485 0.07419784 -0.082767114 0.002290099
-0.060394075 0.001565021 0.046117358 0.01639196 0.03923667 0.043919764 0.0467647 -0.054316573

actor.4.bias f4 [3]
00000000: e355 02bd 2240 ee3c 67f2 3abb
-0.03182019 0.029083315 -0.002852583
