models/ppo_pricing_agent.pth (torch, 41331 bytes, 11 tensors)

critic.0.weight f4 [64, 3]
000000 70 74 22 be 12 99 fd 3d 15 11 bb 3d 8d d6 cf 3d
       -0.1586473 0.123827115 0.091341175 0.10148344
000010 c5 dc bd 3e f6 d9 d7 3d 38 23 b1 bd 45 97 8f be
       0.37082496 0.105396196 -0.086492956 -0.28045097
000020 c1 97 34 be 17 86 68 3e f3 60 2e be a0 0e 89 3d
       -0.17636015 0.22707401 -0.1702917 0.066922426
000030 2f f0 89 bd 19 68 a4 3e 1b 80 94 bd 09 b8 b3 be
       -0.067352645 0.3211067 -0.07250997 -0.35101345
000040 24 74 46 be aa 30 9f bd c4 7e de 3d ad 6e a0 bd
       -0.19380242 -0.07772954 0.108640224 -0.0783361
000050 e2 c3 9b bd f0 64 d2 bb 46 a6 ba 3d 2a 5d 37 3e
       -0.07605721 -0.006420724 0.091137454 0.17906633
000060 05 33 d1 3d d3 74 94 be f6 f4 fb bd a1 a3 e0 bd
       0.10214809 -0.2899538 -0.12302582 -0.1096871
000070 dc 5c 47 3d a5 80 6d 3e 89 9e 72 3c 55 62 ba bd
       0.048672542 0.23193605 0.014808306 -0.091007866
000080 b5 5d 93 bd c4 fb 5a be 7c 3e 22 3d d1 fc 45 3d
       -0.071956076 -0.21385103 0.03961037 0.048336808
000090 fd cf 6b be 73 80 20 be ed bf 09 be 3b b2 9f bd
       -0.2302856 -0.15674 -0.1345212 -0.07797667
0000a0 53 99 24 3e 0d 42 4b bb 5b f7 3b 3e 6f 7d 5a 3d
       0.16074114 -0.003101471 0.18356077 0.05334228
0000b0 31 fc ae 3d 44 a5 7d 3e ce 32 f0 bd d9 93 d2 bc
       0.085441954 0.24770075 -0.1172844 -0.025705265
0000c0 68 a8 f7 3d ca fc c4 bc a7 e0 09 3d 21 13 af 3e
       0.12092668 -0.02404632 0.03366151 0.34194282
0000d0 7c e4 b2 bd 05 a9 44 3d 81 38 49 3d 3c 6a 8b bd
       -0.08734986 0.048012752 0.049126152 -0.06807372
0000e0 0a 78 2b 3d 3b a7 0a 3e 62 eb 3c bd 0d 1f 40 bb
       0.041862525 0.13540356 -0.046122916 -0.0029315383
0000f0 06 dd 2c 3e 71 c7 ad be 74 c7 68 be c6 f5 ec bd
       0.16881189 -0.33941224 -0.22732335 -0.11570315
000100 af fd 9d 3d 47 73 15 be 3a 60 75 bc dd 2a 9b bc
       0.07714402 -0.14594756 -0.0149765555 -0.018941337
000110 f6 91 8c 3e 8b e8 0b 3d e2 70 a5 bd 6e 10 37 be
       0.2745511 0.034157317 -0.08078171 -0.17877361
000120 d0 42 a7 3d a3 ba 8e 3d ed ee 57 be 55 50 0b be
       0.0816704 0.06969192 -0.21087237 -0.13604863
000130 bc bc f4 bd d3 07 29 3e 4f 64 54 bc 94 25 29 3e
       -0.11950061 0.16506891 -0.012963369 0.16518241
000140 73 59 e1 bd fb eb d1 bd 72 1a 93 bd 0f 46 a6 3c
       -0.11003389 -0.10250088 -0.071827784 0.020297078
000150 55 51 fe 3d 86 9a b9 3b d9 41 06 bd bb 69 b9 be
       0.124178566 0.0056641726 -0.03277764 -0.36213478
000160 55 97 15 3d cf c1 04 3e 43 70 5b 3e 70 ed 3f 3e
       0.036521275 0.12964557 0.21429543 0.18742919
000170 a9 44 e5 bc 41 d4 c8 3d 36 03 3a bd bb 97 c6 be
       -0.027986841 0.09806109 -0.04541322 -0.38787636
000180 ef 12 43 3d 27 32 f1 3d c8 c5 bb 3d 08 d1 95 be
       0.04762548 0.11777144 0.09168583 -0.2926104
000190 0c d7 02 be 11 70 86 be b8 2c 78 3e a3 6d bb 3b
       -0.12777346 -0.26257375 0.24235809 0.005719857
0001a0 c1 79 ef 3d 14 34 15 3c 4d b7 88 be c8 76 3c 3e
       0.116931446 0.009106655 -0.26702347 0.18404686
0001b0 f4 a9 df be c0 7e 07 bd fc 22 55 3e bb ea 3b 3e
       -0.4368435 -0.033079863 0.20814127 0.18351261
0001c0 d4 91 b8 bd 22 75 02 3e 49 37 88 3c 16 ba 66 be
       -0.090121895 0.12739995 0.016627925 -0.22531924
0001d0 ce 86 2b be 96 95 14 3e ee 2c 1f 3e 27 0a 4c be
       -0.16750643 0.14510188 0.15544483 -0.19925748
0001e0 49 3b 38 3e 2a a3 3f bd 24 3c 94 bd 5a d4 97 bd
       0.17991365 -0.046786465 -0.072380334 -0.0741355
0001f0 12 d4 f0 3d 17 04 df 3d bd 84 13 be 55 47 08 3e
       0.11759199 0.10889452 -0.14406104 0.13308461
000200 b8 e8 4f bc 54 73 80 bc 2a 45 68 3e e6 53 94 be
       -0.012689762 -0.015679993 0.22682634 -0.2897026
000210 74 e3 c7 3d 57 81 bd bd 9c bc 24 3e 7d 9f a5 3d
       0.0976018 -0.09253185 0.16087574 0.080870606
000220 c3 82 73 bc df 5e b9 3e 6f b9 b3 bc 26 dc 30 bc
       -0.014862719 0.36205193 -0.021939008 -0.010794675
000230 9e 36 f6 bd ca 28 ca bd b8 68 c8 bd 58 c4 c1 be
       -0.12022136 -0.09871061 -0.097855985 -0.3784511
000240 d7 f5 57 3d fe 9f 6d be 03 e0 4e be 94 c0 3f 3c
       0.052724686 -0.23205563 -0.20202641 0.011703629
000250 e9 3c 86 bd a0 e1 da 3b 75 e3 77 bd f8 9a a5 bb
       -0.065545864 0.0066797286 -0.060519654 -0.005053874
000260 84 26 e3 bd bc 53 37 3e 3f dd d6 3d e0 25 02 be
       -0.11091331 0.17903036 0.10491418 -0.1270976
000270 18 6b 10 be fb 73 76 3d 0d 1c b7 bd 0f 5f e0 bd
       -0.14103353 0.0601692 -0.08940897 -0.10955631
000280 45 71 80 bd 94 4b 70 3d 1d 4c c8 bc 4e 56 b6 3d
       -0.062716044 0.058665827 -0.024450356 0.0890318
000290 2a 9d 5c bd 14 c6 b9 be f6 93 59 be b5 2a 13 3e
       -0.05386082 -0.36283934 -0.21247849 0.1437176
0002a0 0c fa e3 bc 98 42 ba be 1a 3d 16 3e 24 57 54 3d
       -0.027829193 -0.36378932 0.14671746 0.051840916
0002b0 a4 8a e0 3c 72 27 0a 3e a7 70 c6 3d 86 87 6e 3e
       0.027409859 0.1349161 0.096894555 0.23293886
0002c0 45 2b 95 3d 65 e0 88 3e 20 49 31 3e de 83 c2 ba
       0.07283644 0.267337 0.17313051 -0.0014840325
0002d0 68 d6 7b be ef b3 a6 bc 40 b5 dc 3d 8b f3 95 3d
       -0.24593508 -0.02034947 0.10776758 0.07321843
0002e0 3c 08 00 3e 14 11 86 bd e7 15 23 3d 03 51 98 bd
       0.12503141 -0.06546226 0.03981581 -0.07437327
0002f0 05 4d 87 bd fd 7c 4d be e9 f9 82 3e c6 28 b6 be
       -0.06606487 -0.2006721 0.2558129 -0.35577983

critic.0.bias f4 [64]
000000 05 d4 67 3d ae 86 76 bd ec 8a 59 3d 03 b9 6d bd
       0.056598682 -0.060187034 0.053111 -0.05803777
000010 40 df 84 bd cf bb 4b 3d e5 26 81 bd c9 1c 67 bd
       -0.06487894 0.049739655 -0.06306247 -0.056423936
000020 bc 29 90 bd 5d 8d 5d 3d 88 16 88 3d a5 ad 5d 3d
       -0.0703921 0.054089893 0.066449225 0.05412068
000030 f5 cb 34 bd a6 2a 95 3d d0 0c 6f bd ac 0f 8d bb
       -0.04413982 0.07283525 -0.05836183 -0.0043048467
000040 0c da 62 3d 4c 88 3b bd f1 16 91 bd ec e4 a5 bd
       0.055383727 -0.04578428 -0.07084454 -0.08100304
000050 e9 6f 51 3d 17 e0 66 bd 3e 82 61 3d 37 49 94 3d
       0.051132116 -0.056366052 0.05505585 0.07240527
000060 a4 a4 6c bd 83 da 54 bd a5 e8 83 3d 8c 60 84 3d
       -0.0577742 -0.0519662 0.06440858 0.06463727
000070 79 7a 82 bd bc 2b 5d 3d 55 69 6d bd 33 d1 2b 3d
       -0.06371016 0.053996786 -0.05796178 0.041947555
000080 3c 4c 8d bd 22 10 22 bd 58 c6 32 3d dd 06 47 3d
       -0.06899306 -0.039566167 0.043646187 0.04859053
000090 ba 9a 11 bd bc 42 52 bd c2 52 61 bd 5e 5e 80 bd
       -0.03554795 -0.051333174 -0.055010565 -0.06267999
0000a0 be 41 54 bd e1 d1 5b bd 82 d2 84 3d f0 2c 44 bd
       -0.05182051 -0.053666953 0.06485464 -0.04789442
0000b0 db 84 97 bd 6c e8 43 3d a9 5a 58 3d d2 72 43 bd
       -0.07398387 0.047829077 0.052820835 -0.047716923
0000c0 77 35 60 3d 4b 87 a0 bd 64 b7 79 3d 80 75 35 3d
       0.054738488 -0.07838305 0.06096591 0.04430151
0000d0 ce c7 96 3d 4c 9e 63 3d 0f 39 8a bd 2f 89 14 bd
       0.073623285 0.055570886 -0.06749164 -0.03626364
0000e0 b4 f1 41 bd 4f 2d 91 3d 7b ec 05 bd 70 9c 18 bd
       -0.047349647 0.0708872 -0.03269623 -0.037258565
0000f0 d7 30 63 3d 47 80 55 3d 16 19 83 bd df c7 59 bd
       0.0554665 0.052124288 -0.06401269 -0.053169128

critic.2.weight f4 [64, 64]
000000 8b 31 00 3e 1d 84 68 3e 97 f5 69 be cb d1 bd bd
       0.12518899 0.22706647 -0.22847591 -0.092685305
000010 7e 46 78 3e a1 df 3c 3e 60 29 d3 3d 89 23 3c 3e
       0.2424564 0.18444683 0.10310626 0.1837293
000020 a8 d9 42 be 10 96 18 be cb a1 05 3f 78 0c 3c be
       -0.19028342 -0.14900994 0.522 -0.18364131
000030 35 22 f8 bd f6 1f b6 3d 68 8e 71 3e 8d 24 19 be
       -0.121158995 0.08892815 0.2358948 -0.1495535
000040 07 2c bc 3d 5a 32 1d 3e f0 4b 18 bc cc ca 36 bd
       0.09188085 0.15351239 -0.009295449 -0.044626996
000050 63 6f ef bd c2 e5 d2 3d d4 66 0d be 68 cd 95 bd
       -0.11691167 0.10297729 -0.13808757 -0.07314569
000060 c2 70 83 be bd a9 51 be cf c3 b9 3b 9b b0 81 be
       -0.25671965 -0.20474906 0.005669094 -0.25330052
000070 c4 49 28 3e 08 d6 78 be 07 67 b1 bd 27 6b 9a bd
       0.1643439 -0.24300396 -0.08662229 -0.07539969
000080 05 aa 8a 3e a2 59 38 3a 66 8d 00 bd e8 ac 49 bd
       0.2708284 0.00070323993 -0.031384848 -0.049237162
000090 17 06 08 bd d8 5a a7 bc 5c b0 92 3e 5e 9c 04 be
       -0.033208933 -0.02042906 0.28650177 -0.12950274
0000a0 ca 95 92 bc 49 ec 28 3e 06 57 c6 bd 97 00 1a bd
       -0.01789369 0.16496386 -0.09684567 -0.03759822
0000b0 e6 01 1f be 92 b9 68 be c8 3f ff bd 19 13 3b 3e
       -0.15528068 -0.2272704 -0.12463337 0.18269004
0000c0 15 37 67 be f0 5b 4f bc 7f 7b 85 be c2 8d 95 3e
       -0.22579606 -0.012656197 -0.26070783 0.29209715
0000d0 9e 76 f1 bc 35 71 39 bd 25 d1 bc bd cf 1b 98 be
       -0.029475506 -0.04527398 -0.09219579 -0.29708716
0000e0 4e 84 e0 3d ca dc ad 3b 2f fd 46 3d 4c 23 fe bd
       0.10962735 0.005305861 0.0485813 -0.12409076
0000f0 14 7d 35 3e 67 14 e5 be 05 5b 00 3c ef a8 e1 3d
       0.17723495 -0.44742128 0.007834201 0.1101855
000100 12 6a b9 3d 61 f6 cf bd 73 cf 1e 3e 0f ee 5e 3e
       0.090534344 -0.10154415 0.15508823 0.217705
000110 40 21 aa bd 65 64 3f 3e bb e5 e1 bc b4 b1 f1 3c
       -0.08307123 0.18690641 -0.027575364 0.02950368
000120 70 fe 92 be f1 fd b7 3c 7c dd c7 3d ad 4c d5 3d
       -0.28709745 0.022459956 0.09759042 0.10415015
000130 9f 44 a1 3e a9 ab 12 3e 76 11 80 bb 8b 1b 1b be
       0.31497666 0.14323296 -0.0039083315 -0.15147226
000140 47 4f 85 be 1a 35 1a bd 0d 0f 98 3a 13 af e0 3a
       -0.26037046 -0.037648298 0.0011601165 0.001714202
000150 5a af 88 be b2 10 2d be 22 64 e6 3d 20 72 21 3e
       -0.26696283 -0.169009 0.112495676 0.15766191
000160 33 34 28 be a2 e3 ea be 9a 29 7f be e6 19 da bd
       -0.16426162 -0.45876795 -0.24918213 -0.10649471
000170 25 e5 9d bd 6e 9c a7 bd cd 64 72 bd e4 d4 69 3e
       -0.077097215 -0.081841335 -0.059178162 0.22835118
000180 42 fb 05 3d 07 a9 c3 3c af 6b 3b be 5d eb 30 bc
       0.03271032 0.02388431 -0.18302797 -0.0107983025
000190 8c ff 83 be 9e de 8d be ff 6f 02 3d eb d7 39 be
       -0.25780904 -0.27708906 0.03184509 -0.18148772
0001a0 e5 83 61 3d 52 4f db be 63 86 c0 bd 7a ca cc bd
       0.055057425 -0.42833954 -0.09400632 -0.09999557
0001b0 f5 a4 8e be 0c e7 73 3e 54 09 ec bd 55 92 ee bc
       -0.27860227 0.23818606 -0.11525217 -0.02912251
0001c0 51 f3 6f bb 5d b6 a3 bb 7b 2d 65 3e 89 98 20 3e
       -0.0036613534 -0.0049961046 0.2238063 0.15683188
0001d0 50 2d 91 bd 04 f2 58 3d 43 09 ce 3c 1e 8c 5d 3e
       -0.07088721 0.05296518 0.0251509 0.21635482
0001e0 a1 93 93 3d e7 95 f9 3e a2 57 5f 3e ff 2c 05 be
       0.07205892 0.4874718 0.21810773 -0.13005446
0001f0 7b 62 69 bd 01 fc cd 3e 45 38 20 bc 2e 22 5c bc
       -0.056978684 0.40231326 -0.009779041 -0.013435883
000200 65 9e 34 3c ed a8 d8 3d ee c8 7d 3d 9b 27 16 3c
       0.011024092 0.10579095 0.0619592 0.009164716
000210 b6 18 31 bd 77 85 34 3d 1a 76 c7 3d 76 64 b1 3e
       -0.043236457 0.044072594 0.09739323 0.34646958
000220 16 bc e9 3e c1 61 34 be 98 90 ee 3d 23 86 00 be
       0.4565131 -0.17615415 0.11648673 -0.12551169
000230 a6 aa 29 3e ed c9 05 be 7d 19 01 bd 2c c7 db bd
       0.16569003 -0.1306531 -0.03151845 -0.107313484
000240 09 e4 f7 bc da ec d3 bc 6d 34 be 3d 12 fe 2f 3d
       -0.030260103 -0.025869776 0.09287343 0.04296691
000250 f0 93 97 be f8 46 95 3d b5 81 df 3c fd f1 46 3e
       -0.29605055 0.07288927 0.027283529 0.19428249
000260 f3 db 8a 3d 5b 77 85 bd e4 24 27 3e 2b 73 2e be
       0.06780233 -0.06516906 0.16322666 -0.1703612
000270 bb b6 4f 3c 51 99 0e be 65 ad 80 bd 53 33 3f be
       0.012677844 -0.13925673 -0.062830724 -0.18671922
000280 61 c9 a0 3c 3c c3 3a bd 8d db 1e be cf 75 c6 3e
       0.019627275 -0.045596346 -0.1551344 0.38761756
000290 7a 79 76 be 37 e8 a6 3e fd 4e 91 be 12 21 15 3e
       -0.24069777 0.3259904 -0.28380576 0.14563397
0002a0 6b 10 0b 3e b9 f4 2d be 46 38 3d 3e 34 a4 60 3e
       0.13580482 -0.16987886 0.18478498 0.21937639
0002b0 7f ef fc 3d 06 1e 45 bc cc 9d 3c bd 2b 23 dd be
       0.12350368 -0.012031084 -0.046048924 -0.43190894
0002c0 3e 4d 88 bd 9c 40 96 3e 8c ba 48 bd de 88 5e be
       -0.06655358 0.29346168 -0.04900603 -0.21731898
0002d0 49 99 f3 3c 92 98 29 be 86 08 cd bd 04 33 50 bd
       0.029736178 -0.16562107 -0.10011391 -0.050829902
0002e0 d8 d6 d2 3c 9b 8d 1c 3e 32 06 ae 3c c1 18 dd bd
       0.025737211 0.15288393 0.021243189 -0.10795737
0002f0 2c d7 75 3d b8 e9 9f be ec ed d2 3e c4 cf 75 3e
       0.060019657 -0.31233 0.41197145 0.24005038
000300 e0 b7 e8 3e 02 9e 1d 3e 48 c6 6e be 9d dc 74 ba
       0.45452785 0.15392306 -0.23317826 -0.0009340735
000310 8e 9a 0d be 32 44 a8 be 7c 85 d8 bd 4c 9a 0e be
       -0.13828489 -0.3286453 -0.10572335 -0.13926047
000320 86 4f 33 be 4e ca 05 be 98 40 d3 be a8 72 83 bd
       -0.17510805 -0.13065454 -0.4126022 -0.06418353
000330 2d 8e 44 be 55 55 1b be 7d 3f 13 3e 80 18 1c 3e
       -0.19194861 -0.1516927 0.14379688 0.15243721
000340 6e b2 8c 3d d1 26 3c 3c 97 61 48 3d 91 2a 06 3e
       0.0686997 0.011483864 0.048921194 0.13102175
000350 7b ea ac be 73 68 ac bd b0 4c 10 3e 8a d3 cd 3d
       -0.33772644 -0.084183596 0.14091754 0.100501135
000360 e6 fd 3a 3d e1 46 1f 3e 8d be 1e 3e d8 de a2 bd
       0.045652293 0.15554382 0.15502377 -0.0795266
000370 fa 13 03 be 3f 9c 2e be d2 c9 a0 be a0 ef f4 3d
       -0.12800589 -0.1705179 -0.31403977 0.11959767
000380 22 c0 91 3e 70 0c 4f be 99 bf 10 3e 18 05 b0 3d
       0.28466898 -0.20219588 0.14135589 0.085947216
000390 2f 61 32 bd 47 6d 8f 3e 03 6f 0b 3e dc b8 62 3d
       -0.043549713 0.2801306 0.13616566 0.055352077
0003a0 11 2a 10 3d f9 db 1e bd 53 e2 f2 bd 6e 8e 5b be
       0.035196368 -0.038784 -0.11859574 -0.21441051
0003b0 d2 0b 99 bd 3d 9e d0 3e 8b 6d c8 3c 20 e1 e6 3d
       -0.07472958 0.40745726 0.024466297 0.11273408
0003c0 d1 8a 07 be 7e d2 bb 3d 55 47 2a be 17 01 a8 3c
       -0.13236548 0.091710076 -0.16628774 0.020508332
0003d0 36 46 82 bd ba e6 b6 bc f1 82 26 3e 8e 7d 2e be
       -0.06361048 -0.022326816 0.16260888 -0.17040083
0003e0 0d 93 09 3e 58 c3 44 3e 4a e5 96 bc 22 d8 08 3e
       0.13435002 0.19215143 -0.01841988 0.13363698
0003f0 f1 33 ce 3e d7 2a 22 3d 97 3b b0 bd 46 c4 2a be
       0.40274003 0.039591637 -0.08605116 -0.16676435

critic.2.bias f4 [64]
000000 71 47 4f bd 2b 31 53 3d 36 e4 4f bd 5f 12 07 3d
       -0.05060524 0.051560562 -0.05075475 0.032976504
000010 2e 2a d3 3c ea 39 70 3d 8b 9e 46 bd 1b d9 10 3d
       0.025776949 0.05864898 -0.048491042 0.035363298
000020 2e 58 49 bd 04 22 53 bd 09 29 64 3d d0 24 67 3d
       -0.04915636 -0.05154611 0.055703197 0.05643159
000030 c6 36 48 3d 1c bf 52 bd 3f ef 47 3d ba 51 7a bd
       0.04888036 -0.051451787 0.048812147 -0.061113097
000040 18 cd 52 3d 36 41 54 3d 45 21 22 bd f9 c5 1b bd
       0.051465124 0.051820002 -0.03958251 -0.0380306
000050 3c 12 3e bd b6 0f 52 bd c9 ac 44 3d 18 da 58 bd
       -0.04640411 -0.051284514 0.048016343 -0.052942365
000060 cc 6c 60 bd 14 f6 61 3d f9 ce 46 bd 6f 4a 46 bd
       -0.054791257 0.05516632 -0.04853723 -0.04841083
000070 ba 6f 36 3d c7 4d 52 bd 88 6d 52 bd 70 4b 3a 3d
       0.044540145 -0.051343706 -0.05137399 0.0454821
000080 db ba 47 bd f1 a5 39 3d 44 d6 58 3d 9b 9f 3c bd
       -0.048762184 0.04532427 0.052938715 -0.04605065
000090 27 d3 56 3d 58 fe 52 bd 61 61 67 bd df 70 a3 3d
       0.052447464 -0.051512092 -0.056489352 0.07980513
0000a0 df 77 4f 3d a3 91 50 bd 01 1d 52 3d ef 8f 6d bd
       0.050651427 -0.05092014 0.05129719 -0.057998594
0000b0 b1 2d 52 3d 14 e2 46 3d 16 d9 59 bd 83 cf 2d bd
       0.051313106 0.04855545 -0.053185545 -0.042434227
0000c0 59 cd 4d 3d 1c 7a 40 bd b2 bb 30 bd a5 64 57 bd
       0.050244663 -0.046991453 -0.04314775 -0.052586216
0000d0 f1 06 9a 3a 92 22 46 3d ea 6d 56 bd e4 2a 6d 3d
       0.0011751336 0.048372813 -0.052350916 0.05790223
0000e0 51 ab 5a bd fd e3 60 3d a8 8f 5c bd c4 47 55 bd
       -0.053386036 0.054904927 -0.05384794 -0.052070394
0000f0 8a f7 5c 3d 47 ac 59 bd 03 41 8d bd 22 76 3b bd
       0.05394701 -0.053142812 -0.068971656 -0.045766957

critic.4.weight f4 [1, 64]
000000 33 95 63 be 9d ff 69 3e 61 02 46 be e6 89 25 3d
       -0.22224884 0.22851415 -0.19336845 0.040414713
000010 16 d0 aa bb f9 ed ea 3d 54 4a 8f be bf 10 06 3b
       -0.005212794 0.11471171 -0.27986395 0.0020456759
000020 c3 90 97 bd 8c f2 06 be b1 17 eb 3d 1a e2 10 3d
       -0.07400658 -0.13178462 0.11479128 0.035371877
000030 f1 0d 95 3e 01 ea 89 bd 7d 4f 9e 3d b7 db c2 bd
       0.291122 -0.06734086 0.07730005 -0.095145635
000040 33 d6 5b 3e ea 0e 8e 3e d3 05 2e bc 85 51 2c be
       0.2146843 0.27745754 -0.010621506 -0.16827972
000050 0e 85 36 be fb f8 f5 bd ca 04 05 3e d0 fb 2d be
       -0.17824194 -0.1201038 0.12990108 -0.1699059
000060 0f 75 50 bd 45 5a c0 3d d8 63 20 be ea f6 4a be
       -0.050892886 0.093922175 -0.15663087 -0.19820753
000070 bb 63 1a 3d 79 b8 7b be c3 51 09 be d7 b6 8d 3e
       0.037692767 -0.2458209 -0.13410096 0.27678558
000080 31 eb a9 be 5d 37 05 3e ff 54 33 3e 35 78 34 bd
       -0.3318725 0.130094 0.17512892 -0.04405995
000090 33 0c 42 3e 23 00 74 be 07 5f f1 bd 6d 07 66 3d
       0.18949966 -0.23828177 -0.11785703 0.056159426
0000a0 b8 72 88 3e c1 0c 64 be 9b 91 3a 3e 49 16 ef bd
       0.26650023 -0.2227049 0.18219607 -0.116741724
0000b0 83 df a8 3e 29 8f 31 3e 78 17 32 be ce 07 94 bd
       0.32983026 0.17339768 -0.17391765 -0.07228051
0000c0 21 6a 2e 3d a7 a3 39 bd e9 10 28 be 2e 7d f9 bd
       0.04258168 -0.045322087 -0.164127 -0.12182079
0000d0 bd 9d a4 3c 68 1e f4 3d 2c 14 9b bd f7 10 98 3d
       0.020094747 0.11919862 -0.07572207 0.07425111
0000e0 7e 0f 00 be b7 4f d1 3d ad 5e c7 bd 1e df 16 be
       -0.1250591 0.102202825 -0.09734855 -0.1473355
0000f0 68 01 b6 3d 1d fd c9 bd d8 76 4d bd 92 2e 38 be
       0.08886987 -0.09862731 -0.050162166 -0.17986515

actor.0.weight f4 [64, 3]
000000 77 f8 2b 3d be 9f 12 3d d2 7c 6d be c1 ba 10 3e
       0.041985 0.035796873 -0.23192146 0.14133741
000010 21 8c 82 be 18 fa 11 bd 9d cb 88 be 76 66 c0 3d
       -0.25497535 -0.0356389 -0.26717845 0.09394543
000020 3a e1 0e be 9b 18 27 3d da 5d 25 3e 94 6e 97 bd
       -0.13953105 0.04079495 0.16149083 -0.07394138
000030 4f f2 5a 3c 45 69 8e 3e 4e 4c 75 3e 0e 58 0c bc
       0.013363435 0.2781469 0.23954889 -0.008565916
000040 71 a4 02 be 75 db 7f bd c5 76 5e 3e 1d a1 1d 3e
       -0.12758042 -0.06246515 0.21724994 0.15393491
000050 7a 79 47 be 15 02 92 be aa 33 7a 3e bc d3 0e be
       -0.19479933 -0.28517213 0.24433771 -0.13947958
000060 80 55 87 3d 13 d0 2f bd 8c d4 50 3e 64 ce 2f 3d
       0.06608105 -0.042923044 0.2039358 0.04292144
000070 93 46 34 3e c7 21 6b be 7f 88 21 be 27 72 3c 3e
       0.17605047 -0.22962104 -0.15774725 0.1840292
000080 16 28 07 bd 61 bb 44 bd df d7 75 bd c0 72 2f 3e
       -0.032997213 -0.04803026 -0.060020324 0.17133617
000090 21 c5 49 be e5 4d 9d 3e c4 fa 3e be d8 eb a2 3d
       -0.19704105 0.3072349 -0.18650347 0.0795514
0000a0 d8 89 59 3e 98 4a 9a be a0 8f a1 bc b5 47 8e be
       0.2124399 -0.30135036 -0.019721806 -0.27789083
0000b0 79 44 3a be 9f 6c e3 3d 18 20 8f 3e 24 50 11 3d
       -0.18190183 0.11104702 0.27954173 0.03547682
0000c0 34 a8 9a bd 73 ea 48 3e ad ec 12 be 8e d5 9c be
       -0.075516135 0.19620685 -0.14348097 -0.3063168
0000d0 81 13 89 bd 5e 0c 99 3e 4c 7f 04 3d 6d be 53 be
       -0.06693173 0.29892248 0.032347962 -0.2067811
0000e0 60 65 62 3d 35 27 0b 3e ac c2 c8 bd 7e d4 8c be
       0.05527246 0.13589175 -0.09802756 -0.2750587
0000f0 bd e9 50 3d 0a 42 a8 be 0e 1d 89 3e 58 02 2b 3d
       0.05100416 -0.32862884 0.2677998 0.041750282
000100 72 4f a4 be 0c 04 00 3e 91 f6 38 be 4d 46 99 3d
       -0.32091862 0.12501544 -0.18062808 0.07484112
000110 85 6d bf bd f4 1d 58 be e1 7a 6c 3b 8e 81 6a be
       -0.09347061 -0.21105176 0.0036083984 -0.22900984
000120 db c3 91 ba c3 8f a5 3d f2 18 4e bd b9 e6 19 3e
       -0.0011120992 0.08084061 -0.05031676 0.1502942
000130 07 2d 94 3e a0 62 15 3d 47 80 bd 3c 15 c8 c8 be
       0.28940603 0.03647101 0.023132456 -0.3921515
000140 a7 7c 52 3e c9 b0 aa bc 29 73 c4 bd 21 b1 01 3f
       0.20555364 -0.02083625 -0.095922776 0.506609
000150 8e 23 44 3e 2b 7d bf be 40 18 03 3b 04 f8 08 be
       0.19154188 -0.37400183 0.0020003468 -0.1337586
000160 eb e9 b1 bd 19 c4 28 3e 4a e0 97 be eb 96 6e be
       -0.086871944 0.16481055 -0.29663306 -0.23299758
000170 8b f9 ab 3c 3f 72 a2 bd 2f 2f 5b 3e ea f8 5f 3c
       0.020993015 -0.07931947 0.21404718 0.013670186
000180 0b 15 92 be 83 61 ad be f5 89 1e 3e 4c 2f 37 3e
       -0.2853168 -0.33863458 0.15482314 0.17889136
000190 b9 d9 ca bd 9f 9f 99 bc 15 56 e4 bd 7a f5 20 3e
       -0.099048086 -0.018752871 -0.11149231 0.15718642
0001a0 00 da e7 bd 01 66 19 be bf 67 89 3e 6c 69 d3 bc
       -0.11320877 -0.14980318 0.26836964 -0.025807105
0001b0 ef 91 48 3d fb 86 c9 be b9 0c 4e 3e 09 1d b2 3d
       0.048967298 -0.39360794 0.20122041 0.08696944
0001c0 ab 50 ca bd 3b 65 27 3e 95 a6 f2 bc 2d dd d9 bd
       -0.098786674 0.1634721 -0.029620448 -0.10637889
0001d0 56 83 15 3d 03 b1 0e 3e e6 bf 2f 3e 6c ec d1 3c
       0.036502205 0.13934712 0.17163047 0.02562543
0001e0 ff eb 4f 3e 8f 70 35 3e 79 ac 5f be a4 a2 a2 3e
       0.20304869 0.17718719 -0.21843137 0.3176471
0001f0 bb 82 1f be 1f c6 94 bd a6 3f 3a 3e ca 4c 50 b8
       -0.15577213 -0.07264351 0.18188342 -4.966258e-05
000200 a2 cd 29 be 17 38 c1 3e e0 bf 91 3e 53 23 1e 3e
       -0.16582349 0.37738106 0.28466702 0.15443163
000210 73 4d 60 3e 05 c4 ef 3d 95 d7 0c be fe c1 2e 3e
       0.21904545 0.1170731 -0.13754113 0.1706619
000220 32 8b 60 be e5 c1 b4 3e b2 e4 99 bd 1a 54 ab 3e
       -0.21928099 0.3530418 -0.07514323 0.33462602
000230 f7 d4 96 bd e0 1c 3f 3e 57 6f 0d be e1 87 61 be
       -0.073648386 0.18663359 -0.13812004 -0.2202449
000240 f8 b1 88 3d bf 88 28 be e1 bd f1 bd ec 5d 8c 3d
       0.0667457 -0.16458414 -0.11803795 0.06853852
000250 bd 6c 9a 3e b9 0d 95 3e d5 7d f2 bd 8f c8 0b bd
       0.30161086 0.29112032 -0.11840407 -0.034126814
000260 b4 b1 47 3a bb ad fe 3d 4d bc f9 3e 42 ff 19 be
       0.00076177274 0.1243548 0.48776475 -0.1503878
000270 60 4a 59 3e 9c 0e 44 bd 21 84 89 bd ad 8e 0b 3e
       0.21219778 -0.047865495 -0.06714655 0.13628645
000280 cb 30 f5 3e 88 c5 18 3e 1f 88 ab bc 9d bf c4 be
       0.4788879 0.14919102 -0.020938931 -0.3842744
000290 8d 08 1f be ab ca 4e 3e 71 22 b1 be 13 0a 97 3e
       -0.15530606 0.20194499 -0.3459659 0.29499874
0002a0 65 fc b3 3c 35 30 f3 be f5 1d 5a be 8d 9e 65 3c
       0.021970937 -0.47497717 -0.2130049 0.014014852
0002b0 67 1a 11 bf fb 14 c6 bd 71 94 a1 3e 7c fc ae 3e
       -0.5668091 -0.096719705 0.31558564 0.34177005
0002c0 c1 42 36 be ab e6 cb be 1f e7 2c be d0 63 15 3e
       -0.17798902 -0.39824423 -0.1688504 0.14588857
0002d0 34 83 bf bd 7f 2e be 3e 28 de 53 be 82 41 2d be
       -0.09351197 0.3714485 -0.20690215 -0.1691952
0002e0 00 f7 55 be 33 61 2c be 5d e4 93 3e 8c df 19 3d
       -0.20895004 -0.16833954 0.28885165 0.037566707
0002f0 25 30 00 3e 47 08 14 bd d7 7d 23 be 11 ee 3c 3e
       0.12518366 -0.036140706 -0.15965973 0.1845019

actor.0.bias f4 [64]
000000 49 8f 11 bc d4 d0 d8 3b 4a 1a 75 bb 19 89 07 bc
       -0.0088842595 0.006616691 -0.0037399703 -0.008272433
000010 7e c8 9f bd 8e 59 53 3d 46 8f 94 bc 1d 47 e7 bb
       -0.07801913 0.051599078 -0.018134724 -0.007058038
000020 99 7f d6 3b 71 9d 48 bc 8e 2c 6c bb 04 c4 76 3c
       0.0065459725 -0.012244568 -0.00360373 0.015061382
000030 6d d0 59 bc 74 ed 19 bc e9 c4 34 3c c1 3f 7d bd
       -0.0132943215 -0.009394992 0.011033275 -0.06182838
000040 e2 d0 30 bc f0 04 a3 3c 0f 82 29 3c 0c 53 0d 3d
       -0.010791989 0.019899815 0.01034595 0.034503028
000050 82 e9 08 3c 44 d8 e3 3b ab ae 57 bb c4 b9 fc 3c
       0.008356454 0.006953271 -0.0032910507 0.030850299
000060 c4 d0 ab bc a9 d0 22 bd 0f b3 ff 3b f3 7c 22 3c
       -0.02097357 -0.039749775 0.007803328 0.0099174855
000070 41 92 15 3c 4e 95 4c 3c a5 8e 86 3d a1 97 d1 bb
       0.009129108 0.012486769 0.06570176 -0.0063962494
000080 58 26 9c 3c a5 0c d9 3b 64 08 d6 bb 9e 32 04 bc
       0.019061252 0.006623822 -0.006531762 -0.008068709
000090 5f 12 f1 3b 0f dd c6 3b 9e 9b 39 3c d8 cb b9 bc
       0.0073569263 0.0060688327 0.011328606 -0.022680208
0000a0 25 d2 89 bc b4 78 3e 3c a0 d8 2d bd 04 3e 96 bd
       -0.016823838 0.011625458 -0.042442918 -0.07336047
0000b0 6e 60 8f bd 70 4f 97 3b 68 90 dd bb fc 6b c6 3c
       -0.070008144 0.004617624 -0.0067615993 0.024221413
0000c0 03 bc bb 3c 28 60 9b bd ec 2d 80 3d 03 25 11 bc
       0.0229168 -0.075867 0.06258759 -0.008858922
0000d0 f9 b0 11 bd 6a e0 15 bd ac c3 21 3c ee e4 b8 3b
       -0.035569165 -0.03659097 0.009873312 0.005642525
0000e0 61 c3 8e 3c 03 ef 09 3c 09 28 6c bc 5a bf 49 3d
       0.017427148 0.008418801 -0.014413842 0.049254753
0000f0 c5 7e ed bb de 7a 9f 3d 97 64 29 ba a0 a1 a1 3c
       -0.007247778 0.07787107 -0.00064618274 0.01973039

actor.2.weight f4 [64, 64]
000000 ef 04 b9 3d 0e 20 e8 bc 3d 23 3d be 98 d0 2b 3e
       0.09034144 -0.028335597 -0.18470474 0.16778791
000010 b0 7d 47 bb 89 bb f4 bd 41 69 a2 bc 2d 58 21 3e
       -0.0030439906 -0.11949832 -0.01982558 0.15756293
000020 14 6c 08 be 86 9e 8e 3e 75 98 1e 3d 9f 8a a3 3d
       -0.13322479 0.2785532 0.038719613 0.07985424
000030 b0 6e 6b 3e e8 34 1c be c8 56 5b be cb 65 34 3e
       0.22991443 -0.15254557 -0.21419823 0.17616956
000040 88 8c a1 bd 2b e1 4c be 51 6b 8d bb 15 1c ee 3c
       -0.07888132 -0.2000777 -0.0043157716 0.029066125
000050 fa 37 95 3d 4f 55 d0 3d 53 17 36 3d 8a b8 74 be
       0.07286067 0.10172521 0.044455837 -0.23898521
000060 f8 e1 cb 3e ec 49 a8 bd 78 69 81 be 75 e1 46 3e
       0.39820838 -0.082172245 -0.2527578 0.19421943
000070 81 21 82 3e a0 8c 4a bd 80 b9 14 be 55 2a 19 3e
       0.25416186 -0.049450517 -0.14523888 0.14957555
000080 ae 76 0b be e4 ef 9d bd e3 25 e6 3c 10 41 20 3f
       -0.13619491 -0.07711771 0.028094238 0.6259928
000090 ca 37 81 bd 0e 47 4d be 3c 68 40 bd 4d 26 f5 3d
       -0.06309469 -0.20046636 -0.046974406 0.11970196
0000a0 d7 72 d0 bd d2 7c ce 3d e3 92 2e be f4 8a 85 bd
       -0.10178154 0.10082401 -0.1704822 -0.06520644
0000b0 1e b0 0d bd 66 36 ed 3d a6 ed 09 bb f2 83 7c 3d
       -0.034591787 0.11582641 -0.002104619 0.06164927
0000c0 90 39 ed bd 16 3e 84 3e 60 3d 0c 3e 71 9d 01 3e
       -0.11583245 0.25828618 0.13695288 0.12657715
0000d0 59 55 8d 3d f0 49 7c 3e 8a 1a 98 be c0 40 0f 3e
       0.069010444 0.2463758 -0.29707748 0.13989544
0000e0 a3 ec 0d 3e 70 91 c9 be 79 72 a8 3e 35 fc 8a 3e
       0.13859801 -0.39368773 0.32899836 0.27145544
0000f0 b0 02 5f 3e dc a7 27 bd ef 7f cc 3e aa 07 f7 3d
       0.21778369 -0.040931568 0.39941356 0.12062009
000100 29 ed a1 bd de 36 dc 3d a4 0e 3e 3e 89 00 9c be
       -0.07906563 0.107526526 0.18560272 -0.30469158
000110 96 6b 2d 3d ad 7c 2a 3e 31 1a 93 be da 94 52 be
       0.04233893 0.16649123 -0.2873092 -0.20564595
000120 d3 92 3e 3d 71 15 f9 be 07 50 95 3d 79 ec a1 bc
       0.04652674 -0.4864917 0.07290655 -0.01976608
000130 03 64 b1 bb f9 80 35 bd 39 59 37 3e 39 37 12 be
       -0.0054135337 -0.04431245 0.1790513 -0.14278878
000140 72 07 5a be b0 54 6d 3d 90 55 5c 3e 0b eb d3 3e
       -0.21291903 0.057942092 0.21517015 0.4139026
000150 f8 bc db bd ed d5 04 bd ac 24 39 be 3d 5d 55 3c
       -0.10729402 -0.032430578 -0.18080395 0.013022718
000160 95 62 ef bd 0d 11 85 be 9a 63 0d 3d 2a 00 4d 3d
       -0.11688725 -0.2598957 0.034518816 0.050048985
000170 85 11 0a 3d 7e 79 79 be 08 88 b4 3e c6 d8 55 be
       0.033708114 -0.24362752 0.35260034 -0.20883474
000180 5e 45 d9 3e 87 b9 a3 bc 10 82 ac bc 83 9c ac 3e
       0.42435735 -0.019985927 -0.021058112 0.3371316
000190 5d dc 46 3e 2f 85 19 be f4 4c a9 bd 66 61 07 bd
       0.1942 -0.14992212 -0.08266631 -0.03305187
0001a0 ab 63 9a bb 6b d3 d7 3e 2b c4 2c 3d 51 ad 17 bd
       -0.0047115884 0.42153487 0.042179268 -0.03703052
0001b0 cf c9 d2 bd b6 6e 51 3e 00 e5 3c 3e 5b f8 74 be
       -0.10292398 0.20452389 0.18446732 -0.23922865
0001c0 8a 08 30 3d 3a ed c1 3d 0e b4 df 3c ee e5 10 bc
       0.042976893 0.094690755 0.027307536 -0.008843882
0001d0 23 74 d0 3d 14 70 28 be fe 2b 44 3e a5 0a 81 be
       0.10178401 -0.16449004 0.19157407 -0.25203434
0001e0 77 75 91 ba 48 61 05 be 95 c5 1c bd c0 8d 38 3e
       -0.0011097629 -0.13025391 -0.038274366 0.18022823
0001f0 01 53 92 be e0 8f 48 3e de 09 14 bd bc 25 80 3e
       -0.28578952 0.19586134 -0.036142223 0.2502879
000200 dd b0 bc bd 70 8f 87 be da 6e 3f be 2f f3 3f 3e
       -0.092134215 -0.26476622 -0.1869463 0.18745111
000210 56 f8 07 bd fb 6e 3c be 0c 26 ae bd 3d fd f3 bd
       -0.033195816 -0.1840171 -0.085033506 -0.11913536
000220 e8 12 ab 3d ac 88 b0 be bc ad c2 3e 9f 0d 4f 3e
       0.083532155 -0.34479272 0.38023174 0.2022004
000230 87 9f a2 bd 42 40 3a bc 5f 31 f4 3d 2f 75 03 be
       -0.07940584 -0.011367859 0.11923479 -0.1283767
000240 23 69 ac 3e 8f 2a 9f 3d c9 c9 96 bc 57 89 d1 bd
       0.33673963 0.07771789 -0.018406766 -0.102312736
000250 53 89 d8 3e 18 2b 47 bd d3 96 0d bd bb a7 24 3e
       0.4229227 -0.04862508 -0.034567665 0.16079609
000260 52 7e e1 bd b8 12 80 be 3a 7a e6 3c 0a df 27 bd
       -0.11010422 -0.2501428 0.028134454 -0.04098419
000270 09 26 68 3e 12 de 95 3d 9b 36 53 3e 9c d7 5a be
       0.2267076 0.07317747 0.20626299 -0.21371311
000280 76 29 98 3d 7d 12 71 be a0 e6 e3 be 80 47 09 bd
       0.07429783 -0.23542209 -0.4451189 -0.033515453
000290 9a 5a 97 3e f1 c1 fa bb 91 d0 73 3e c7 95 44 3e
       0.2956131 -0.007652514 0.2381003 0.1919776
0002a0 29 42 41 3d 01 9a 95 bd 11 ec 09 bd 4f 0f 27 bd
       0.047182236 -0.073047645 -0.033672396 -0.040786084
0002b0 f9 9c 01 be a2 a0 07 3a 13 e2 55 be 37 34 90 3e
       -0.12657537 0.00051737775 -0.20887022 0.28164837
0002c0 0b b6 d8 bd 65 60 14 3e 77 d4 a9 3c 6e a6 39 be
       -0.10581597 0.14489897 0.020731194 -0.18129894
0002d0 b2 67 6f 3d ed 20 6f 3d ac 4e 5e 3e 1f 2f 08 3d
       0.0584485 0.05838101 0.21709698 0.033248063
0002e0 02 21 b0 3d 42 e2 6b bd 7c 81 40 be a7 6f 24 3e
       0.08600046 -0.057588823 -0.18799394 0.16058217
0002f0 0f 67 89 be 58 d6 c8 3e 37 d9 86 3d c6 2c a1 be
       -0.2683644 0.3922603 0.06584399 -0.31479472
000300 42 ad c0 bd 62 d2 5c 3e 1d ab 97 bd 4e 86 6c be
       -0.09408046 0.2156463 -0.07405684 -0.23098108
000310 77 26 ac 3d 29 d6 7f 3d e2 e1 3a be 23 85 1e be
       0.08405774 0.0624601 -0.1825023 -0.15480475
000320 13 73 d4 bd e2 ef 5c be a8 e6 74 bb 9b 57 6c 3c
       -0.10373511 -0.21575883 -0.0037368927 0.014425184
000330 2f d3 c3 bd e2 0b 22 be 4a e0 34 3e 36 08 9d 3c
       -0.095617644 -0.15824845 0.17663684 0.019168954
000340 4f 18 9d be c1 a0 56 3e 1d d4 9f 3e 4b 6f a2 be
       -0.30682608 0.2095976 0.31216517 -0.31725535
000350 f0 24 3b 3e e8 11 c9 39 46 da 89 3d bb ee 66 be
       0.1827581 0.0003835105 0.067310855 -0.22552006
000360 08 20 65 be 73 ed cf bd f5 73 42 3e 2a db 82 3e
       -0.223755 -0.10152712 0.18989547 0.25557834
000370 e6 56 42 3e 02 16 35 be a2 59 a0 bb 2c c9 3b 3e
       0.18978462 -0.17684177 -0.0048934976 0.1833846
000380 d8 30 c6 bc f5 eb 37 be 6f 1b 98 3d 38 9a 9f be
       -0.024193212 -0.17961104 0.074271075 -0.31172347
000390 79 90 9c be fc 2a 20 be 3d 10 50 bd 8e e1 12 be
       -0.30578974 -0.15641397 -0.050796736 -0.14343855
0003a0 f3 eb 64 3e 62 da 4b bd c3 46 2e 3e e8 aa 19 be
       0.22355632 -0.049768813 0.17019181 -0.15006602
0003b0 17 b6 9c 3e 1e 92 f7 bc 53 8d 3d be c2 db 01 3e
       0.30607674 -0.030221041 -0.18510942 0.12681487
0003c0 f3 ed 19 3e 7f cd 17 3d 2d e8 4a 3c f4 d0 c8 be
       0.15032177 0.03706121 0.012384457 -0.3922192
0003d0 d6 a7 89 be 17 c2 26 be 32 b5 1a 3e 97 69 43 bd
       -0.2688586 -0.16284977 0.15108183 -0.04770812
0003e0 1f 91 29 be 8a 6c 56 be 31 eb 8d bc 6d 7f ca 3e
       -0.16559266 -0.20939842 -0.017324062 0.39550343
0003f0 89 6a 4f 3e b0 35 83 3e 09 f8 ab 3d 09 d2 d3 bd
       0.20255484 0.25626898 0.08396918 -0.103427954

actor.2.bias f4 [64]
000000 49 60 b6 bc 4b 3f 5b 3c db a6 14 3c d7 c9 5a 3c
       -0.02226271 0.013381789 0.009072985 0.013353786
000010 37 4f 22 3c 9b 96 3a 3c 05 5c b9 3b 31 5e 7f 3c
       0.009906582 0.011388446 0.0056567215 0.015586422
000020 e1 4e c7 bc f8 12 2b 3c 29 8e 94 bb 22 75 5f bc
       -0.024329605 0.010441534 -0.0045335484 -0.0136387665
000030 f9 77 74 bc 8f c9 50 bc 11 26 07 3c 6a 7a c5 3b
       -0.014921182 -0.012743368 0.008248822 0.006026556
000040 38 fc 1b 3c 83 c6 23 bc 84 35 58 3c 6a 8c 02 bc
       0.009520583 -0.009996059 0.013196353 -0.007968048
000050 dc 71 99 3b c3 46 28 3c ed 33 e7 bb b1 47 e3 3c
       0.0046827625 0.010270777 -0.0070557506 0.027744146
000060 45 ca 73 bc f7 ea dd 3b 0d 23 30 bc aa e3 07 bc
       -0.014879768 0.0067723948 -0.010750544 -0.008294025
000070 f0 99 11 bc bb 22 0f 3c c9 7a 51 3c b4 e7 c9 3b
       -0.008886799 0.008736308 0.012785622 0.0061616544
000080 5d 32 20 bc ad 7a 1d 3c fb f4 db 3b 17 fa 2d 3c
       -0.009777633 0.009611768 0.0067125536 0.010618708
000090 65 0c 16 3c 2e 7f be bb 8a 38 02 bd 2c b0 62 bb
       0.0091582285 -0.005813501 -0.0317922 -0.003458987
0000a0 bf de 87 bb 96 40 04 3c 4d 9a 0b 3c 9b fa be 3b
       -0.0041464265 0.008072039 0.008520675 0.0058282143
0000b0 82 7d f7 bb 38 4c 81 3c 6c 45 1a bc 82 30 5b 3a
       -0.0075528035 0.015783414 -0.0094159655 0.0008361415
0000c0 12 74 83 3c c5 da 84 bb 5b f4 5e 3c 6d 42 15 bc
       0.016046558 -0.0040543997 0.013608064 -0.009110075
0000d0 06 af 32 bc 36 5d 06 bc 68 80 5f bd 39 84 e5 3b
       -0.010905987 -0.008200934 -0.054565817 0.0070042876
0000e0 f9 45 28 bc 2f 84 e9 bb e4 18 b1 bb 2a 0c 0e bc
       -0.010270589 -0.007126353 -0.0054045785 -0.008669892
0000f0 ad b7 15 bc 78 71 f5 bb 95 71 50 bd 15 a8 11 bd
       -0.00913803 -0.007490333 -0.05088957 -0.035560686

actor.4.weight f4 [3, 64]
000000 5f 99 6d 3d 78 c4 9d bd 26 7c 8b bd 71 91 76 bd
       0.058007594 -0.07703489 -0.06810789 -0.060197297
000010 74 62 5b bd 13 63 fc bc 4a 4e 75 bd 28 5c 64 bd
       -0.05356069 -0.030808961 -0.059889115 -0.05575195
000020 d9 e2 87 3d 3b bf 10 bd 4d 50 93 3d 4c b4 f2 3c
       0.06635065 -0.03533862 0.071930505 0.029626988
000030 51 8a 62 3d 6e b8 96 3d 9c cd a1 bd c3 60 91 bd
       0.05530769 0.07359396 -0.07900545 -0.07098534
000040 3b ec 53 bd 41 d3 2c 3d 64 37 32 bd e7 67 86 3d
       -0.05173896 0.042193655 -0.043509856 0.065627865
000050 87 02 96 bd 1f 3f 78 bd 3b 2e 87 3d 92 ca 53 bd
       -0.07324701 -0.060607072 0.06600615 -0.051706858
000060 87 0b 8e 3d e8 86 b4 bc b6 3d 88 3d ee f1 76 3d
       0.069357924 -0.022036985 0.066523954 0.060289316
000070 96 37 83 3d 2d a1 81 bd 92 f3 82 bd 06 de 8b bd
       0.064070866 -0.0632957 -0.063941136 -0.06829457
000080 47 dd 44 3d e8 ad 82 bd cd 71 b2 bd f4 78 31 bd
       0.04806259 -0.06380826 -0.08713112 -0.04332824
000090 2a ca 5b bd d6 4f 98 3d 66 9d 52 3c 85 9b 5a 3d
       -0.053659596 0.074371025 0.0128549095 0.05337097
0000a0 03 e0 b2 b9 2d b5 90 bd 39 d0 71 bd 5b 90 69 bd
       -0.00034117707 -0.070658065 -0.059036467 -0.057022434
0000b0 00 5f 4e 3d a9 2d 75 bd 07 68 e1 3c e8 4e 1f bc
       0.050383568 -0.059857998 0.027515424 -0.009723403
0000c0 8d fa 91 bd 2a 00 6d 3d d1 e8 17 bd b1 22 54 3d
       -0.07127867 0.057861485 -0.037087265 0.051790897
0000d0 da ad 3f 3d 1f 32 26 3d 60 f3 1c 3d 90 25 d3 bb
       0.046796657 0.040575143 0.038318038 -0.006443687
0000e0 11 19 18 3d 6b 5d 77 3d b3 3e 86 3d 98 04 9d 3d
       0.03713328 0.060391825 0.06554928 0.07666892
0000f0 ba c1 37 3d 91 af 9c 3c fd ee b4 3c 7d 3b 4a 3c
       0.044862486 0.019126685 0.022086615 0.012343285
000100 5a a0 7e 3c e7 16 28 3c 0c 45 36 3c 6d a4 ad 3c
       0.0155411605 0.010259367 0.0111248605 0.021196568
000110 ce 46 ee 3b 15 4c 42 bb f3 3a 07 bb e2 fa 96 3c
       0.007271624 -0.00296474 -0.0020634502 0.018430177
000120 0f 7f 13 bc 9e e3 34 3c 17 11 30 bb da af 43 3b
       -0.009002461 0.011040596 -0.0026865655 0.0029859454
000130 b9 04 e1 bc 01 86 5f bc 83 81 0b 3c eb 71 19 bb
       -0.027468072 -0.013642789 0.008514765 -0.0023413848
000140 dc eb 2f 3a 39 82 32 3a b9 ff b4 3c 3e 16 21 3c
       0.0006710866 0.0006809566 0.022094594 0.009831963
000150 9c cb 8d 39 c2 cc f0 3b 35 26 3e ba ce 3e 8b 3c
       0.00027045317 0.007348628 -0.0007253618 0.016997721
000160 e6 9a 85 ba 7b 70 d0 3b 16 33 48 bc 31 53 ac 3c
       -0.0010193258 0.006361065 -0.012219211 0.021035763
000170 c6 05 a7 bb 46 b9 a4 3b 25 2e 8d 3c a4 7a 52 bc
       -0.005097124 0.005026969 0.017233917 -0.012846623
000180 d0 99 cd bb 6c 1b 20 3c 77 b0 da 3b 99 51 b7 bb
       -0.0062744394 0.009772163 0.0066738683 -0.005594444
000190 e8 9a 22 3c 16 62 e3 39 61 da 57 3c 98 e8 42 3c
       0.009924628 0.00043369894 0.013174624 0.011896275
0001a0 20 93 45 3a 5f 6a b4 3b 2b 88 c4 39 f4 eb 23 3b
       0.0007536877 0.0055058445 0.00037485486 0.0025012465
0001b0 4e 64 b5 3a 7c 35 95 3c cb cc 8c bb 82 56 56 3c
       0.0013839097 0.01821398 -0.004296874 0.0130821485
0001c0 1f e2 da 39 9e 11 0d 3b bf 6d c6 3c fd 35 27 bb
       0.00041748674 0.0021525393 0.024222253 -0.0025514357
0001d0 07 57 bf bb b2 61 0d 3c 3e 6b 4d 3c 56 91 d4 3b
       -0.005839232 0.008629249 0.012537776 0.006487052
0001e0 d4 32 a3 3b d6 31 24 39 73 26 f7 3b d8 90 81 bc
       0.0049804244 0.00015658824 0.0075424253 -0.015816137
0001f0 a8 87 e0 bb a5 be cc ba a0 b0 8b 3c fc d3 d7 bb
       -0.006852109 -0.0015620781 0.017051995 -0.00658655
000200 6a 3d a2 bd fe 5f 80 3d c6 42 69 3d a1 bf 31 3d
       -0.0792187 0.06268309 0.056948446 0.043395642
000210 b7 51 5f 3d ee 64 25 3d b4 68 8c 3d 05 d7 18 3d
       0.05452129 0.040379457 0.06855908 0.037314434
000220 8a 20 6a bd 00 4e 02 3d e0 59 87 bd 09 46 27 bd
       -0.057159938 0.031812668 -0.06608939 -0.040838275
000230 b3 83 0c bd 1f f4 78 bd ff 52 98 3d f9 a9 a1 3d
       -0.034305286 -0.060779687 0.07437705 0.07893748
000240 2c 6f 60 3d b9 7a 5d bd 29 3b c5 3c 06 3f a2 bd
       0.05479352 -0.054072116 0.024076061 -0.07922177
000250 34 7e a8 3d 0f f5 6b 3d d2 b8 87 bd 90 02 0a 3d
       0.08227196 0.057606753 -0.066270486 0.03369385
000260 08 9e 8c bd 79 bf b0 3c 52 64 6f bd 06 70 a3 bd
       -0.068660796 0.021575676 -0.058445282 -0.07980351
000270 c4 00 86 bd c9 8e 88 3d c1 85 52 3d e6 dd a7 3d
       -0.06543115 0.06667859 0.05139709 0.08196621
000280 7f 83 32 bd 84 aa 73 3d b3 ff a8 3d 4a c0 67 3d
       -0.043582436 0.05948879 0.08251896 0.056579866
000290 17 4e 3c 3d 80 71 9d bd 1d 7b d8 bc 31 a7 8f bd
       0.04597291 -0.07687664 -0.026425892 -0.07014311
0002a0 7b 34 77 bb 5a 91 85 3d 46 40 8a 3d ad 7d 74 3d
       -0.003772049 0.06521864 0.067505404 0.059690166
0002b0 b2 bd 7f bd 8d a3 25 3d 95 1d e1 bc e0 e3 3c ba
       -0.062436767 0.040439177 -0.027479926 -0.0007205587
0002c0 4b 9d 83 3d 78 2e 86 bd cc 89 39 3c 6e 1a 5b bd
       0.06426486 -0.06551832 0.011324357 -0.053492002
0002d0 e2 fc 49 bd 49 78 5f bd f4 59 5b bd 83 ce f4 39
       -0.049313433 -0.054558072 -0.053552583 0.0004669317
0002e0 7a 1c 41 bd fc 66 8e bd 7d 04 9c bd 84 7f 96 bd
       -0.047146298 -0.069532365 -0.076180436 -0.073485404
0002f0 da e0 4d bd b9 ed bb bc ea 86 2b bd d7 b6 1e bc
       -0.050263263 -0.022940503 -0.04187671 -0.009687147

actor.4.bias f4 [3]
000000 f9 f1 e7 bb 34 8a 38 bc ed 35 24 3c
       -0.007078406 -0.011263419 0.0100226225
